checkpoints/model.pt (torch, 114515 bytes, 7 tensors)

emb.weight f4 [58, 32]
0	0x3ff1997b	1.8874964
1	0xbfa4ba72	-1.2869399
2	0x3f02b41a	0.51056063
3	0xbef1d43b	-0.47232231
4	0x3ea5c26f	0.32374904
5	0xbfe85313	-1.8150352
6	0x3f1cd452	0.61261475
7	0x3f3367d0	0.7008028
8	0x3e4f3e1a	0.20238534
9	0x3f75b865	0.9598449
10	0xbfb84afc	-1.4397883
11	0xbf2ef05b	-0.68335503
12	0xbf79d59a	-0.97591555
13	0xbf4df744	-0.8045542
14	0x3f125be6	0.57171476
15	0xbfa70558	-1.3048506
16	0x3fb0598c	1.3777328
17	0x3eb101c0	0.34571648
18	0x3ddc6586	0.107615516
19	0xbe9d5f31	-0.30736688
20	0xbfa099c3	-1.2546924
21	0xbe948da9	-0.29014328
22	0x3e1f5d7e	0.15563008
23	0xbe740a63	-0.23832087
24	0x3f8051b7	1.0024937
25	0xbef32fe8	-0.47497487
26	0x3f48638d	0.782769
27	0x3ded4f71	0.11587418
28	0xbfbfa5d8	-1.4972486
29	0xbeaa0121	-0.33203986
30	0xbdb969d7	-0.090533905
31	0x3fb2f4b5	1.3980929
32	0xbf0be507	-0.54646343
33	0xbf3f14c6	-0.7464107
34	0xbf60829f	-0.8769931
35	0x3fbc0adf	1.4690818
36	0xbf3b3df0	-0.73141384
37	0x3f5d370f	0.8641214
38	0x3f9986e8	1.1994295
39	0x3e6964d5	0.2279237
40	0x3f669508	0.90071154
41	0xbf4b2f8b	-0.7936942
42	0x3eb7e09e	0.35913557
43	0xbf370527	-0.71492237
44	0xbf474668	-0.77841806
45	0xbeda4046	-0.42627162
46	0xbf82ceb6	-1.0219333
47	0x3f955e16	1.1669338
48	0x3f871f9e	1.0556524
49	0xbe9c8a9b	-0.30574498
50	0xbfecf46f	-1.8512095
51	0x3e176028	0.14782774
52	0x3efc84ca	0.4932006
53	0x3ecfdbfe	0.40597528
54	0x3e597e97	0.21239696
55	0x3f394a89	0.72379357
56	0xbf176c3a	-0.59149516
57	0x3be7d629	0.0070750904
58	0xbf40baca	-0.7528502
59	0xbe492aae	-0.19645187
60	0x3fb14651	1.3849584
61	0x3d971eed	0.073789455
62	0xbe847ab9	-0.2587488
63	0xc001246d	-2.0178483
64	0x3d8f43ac	0.06995329
65	0x3eb493e2	0.35269076
66	0xbe81baec	-0.25337923
67	0x3f5ddf76	0.866691
68	0x3ebcced7	0.36876556
69	0x3f283779	0.65709645
70	0xbf725230	-0.9465666
71	0x3f8ed58b	1.1158918
72	0xbf706e71	-0.9391852
73	0xbec1738b	-0.37783465
74	0xbee9597f	-0.45576093
75	0xbe43e2a8	-0.19129431
76	0xbf68c3a0	-0.909235
77	0xbf618b6d	-0.8810337
78	0xbe1910c8	-0.14947808
79	0x3f841fe4	1.0322232
80	0x3fe23433	1.767218
81	0x3c7fae69	0.015605547
82	0x3e689ed5	0.2271684
83	0xbfadaa2c	-1.3567557
84	0x3f1cd8af	0.6126813
85	0xbf505c53	-0.81390876
86	0x3f3778bf	0.7166862
87	0x3d368cf2	0.04456801
88	0x400c33dc	2.1906652
89	0xbf774a6d	-0.9659794
90	0xbf5319d8	-0.8246131
91	0xbf8dda10	-1.1082172
92	0x3db25a38	0.08708614
93	0xbf25532b	-0.6458003
94	0xbf963e93	-1.1737846
95	0xbfa79f83	-1.3095554
96	0xbe6f73cb	-0.23384015
97	0xbf229fec	-0.6352527
98	0x3d7d124f	0.06178504
99	0xbeffdc10	-0.49972582
100	0x3f5571d9	0.8337684
101	0x3f3e9ad8	0.7445502
102	0xbf86fa20	-1.0545082
103	0x3ec8956b	0.39176497
104	0x3dc0135f	0.09378695
105	0xbf08d358	-0.53447485
106	0xbd9c8670	-0.076428294
107	0xbf2511cb	-0.64480275
108	0xbd516976	-0.051125966
109	0x3e45289b	0.19253771
110	0xbe8499a5	-0.2589847
111	0x3fba1bee	1.4539773
112	0x3e38f972	0.18063906
113	0xbef5efdf	-0.4803457
114	0xbffd7818	-1.9802275
115	0xbf83db74	-1.0301347
116	0x3ef0cc83	0.4703103
117	0x3ee9def5	0.45677915
118	0xbeec1247	-0.46107695
119	0xbe389953	-0.18027239
120	0xbf0a8fe3	-0.54125804
121	0xbe19843c	-0.1499185
122	0xbf281c03	-0.6566774
123	0x3e83869c	0.25688636
124	0xbe0d4a9d	-0.13797994
125	0xbe9ef610	-0.31047106
126	0x3fa325b1	1.2745878
127	0xbeec5cf0	-0.46164656
128	0xbec7eb06	-0.39046496
129	0xbf016f5b	-0.5056054
130	0xbe91dfcf	-0.28491065
131	0x3ddf0719	0.10890026
132	0x3f51d606	0.819672
133	0x3e53ae9f	0.20672081
134	0x3fa78ede	1.3090475
135	0xbc286e6c	-0.010280233
136	0xbf2008a8	-0.6251321
137	0x3e9b04c4	0.30277073
138	0xbf5d2231	-0.86380297
139	0xbf23573a	-0.6380497
140	0x3f6bf439	0.9216953
141	0xbf83790a	-1.0271313
142	0xbeef5828	-0.46746945
143	0x400cebad	2.2018845
144	0x3de4195a	0.11137648
145	0xbe5db299	-0.21650161
146	0x3f30c42d	0.6904934
147	0x3f13e80a	0.5777594
148	0x3f98b578	1.193038
149	0x3cca2f76	0.024680834
150	0x3ff52ee4	1.9154935
151	0xbf07a095	-0.52979404
152	0xbefdb26f	-0.49550197
153	0x3e5237bb	0.20529072
154	0x3f9b7bdb	1.2147173
155	0xbed3e771	-0.41387513
156	0xbff0c406	-1.8809822
157	0x3efc59bf	0.4928722
158	0xbfccd09b	-1.6001161
159	0xbea699db	-0.32539257
160	0x3eeadd01	0.45871738
161	0xbf9adb91	-1.2098256
162	0x3eb34602	0.3501435
163	0xc002e625	-2.045297
164	0x3f3f03d8	0.7461524
165	0x3e98c2d7	0.2983615
166	0x3eae0e4d	0.33995286
167	0x3ed341fe	0.41261286
168	0x3f4dfdc2	0.8046533
169	0xbf6c8330	-0.92387676
170	0x3fd090ed	1.6294228
171	0x3eb3d34f	0.35122153
172	0xbf7fedf8	-0.99972486
173	0x3e572143	0.21008782
174	0x3ea3dc64	0.32004082
175	0x3f839f7d	1.0283047
176	0x3edd0b7f	0.43172833
177	0xbdfc53f0	-0.12320697
178	0xbd9b6670	-0.07587898
179	0xbf00d831	-0.5032988
180	0x3eea19cf	0.45722815
181	0xbf8c896f	-1.0979441
182	0xbf996e50	-1.198679
183	0xbee5d8bb	-0.44891915
184	0xbf2ae496	-0.66755044
185	0xbd1200e7	-0.03564539
186	0x3e85d982	0.26142508
187	0xbf1281a5	-0.5722907
188	0x3f80d44d	1.0064789
189	0xbf8b1d3a	-1.0868294
190	0x3f032c1c	0.5123918
191	0xbeb3e305	-0.3513414
192	0x3ecd0e33	0.40049896
193	0xbd5294cc	-0.051411435
194	0x3fbd1599	1.4772216
195	0xbf6b9bfa	-0.92034876
196	0x3fb23745	1.3923117
197	0x3fd25124	1.6431012
198	0xbf38758b	-0.72054356
199	0x3d14f910	0.036370337
200	0x3fd1082c	1.6330619
201	0x3f30fe45	0.69137985
202	0xbf32a023	-0.697756
203	0xbe9853d8	-0.29751468
204	0x3f57698e	0.8414544
205	0x3ea44946	0.32087153
206	0x3eacade6	0.33726424
207	0xbf11689e	-0.5680026
208	0xbfc52f93	-1.5405143
209	0xbf4a81fc	-0.7910459
210	0xbfc9b02c	-1.5756888
211	0x3eacab82	0.337246
212	0x3ebd1224	0.36927903
213	0xbdc43b74	-0.09581652
214	0xbfde1df0	-1.7352886
215	0xbe3a4837	-0.1819161
216	0xbd897b81	-0.067130096
217	0x3ed8c28f	0.42335936
218	0x3e6811cd	0.2266304
219	0x3e655df2	0.22399119
220	0x3f05cc3c	0.5226476
221	0xbee34f34	-0.44396365
222	0xbe565030	-0.20929027
223	0xbfaef2f4	-1.3667893
224	0xbeb0e39f	-0.3454866
225	0x3f5a3fd7	0.8525366
226	0x3e63681d	0.22207685
227	0xbf63ec87	-0.8903279
228	0x3f7b7c6b	0.9823672
229	0xbf4ec652	-0.8077136
230	0x3e26e1b1	0.16297032
231	0x3f0667dc	0.52502227
232	0xbf8b53f8	-1.0885
233	0xbdeb26c8	-0.11482006
234	0xbf069234	-0.5256684
235	0xbf01b17b	-0.5066144
236	0xbdeec722	-0.11659075
237	0xbef18764	-0.47173607
238	0x3eba07e2	0.3633414
239	0xbf4cc1f3	-0.79983443
240	0xbf748173	-0.95510024
241	0xbfccb798	-1.5993528
242	0xbec2e950	-0.38068628
243	0xbfa6934d	-1.3013703
244	0xc010f795	-2.2651112
245	0x3e9e2a78	0.30891776
246	0xbffbc1f5	-1.9668566
247	0x3ed93916	0.42426366
248	0x400757eb	2.114741
249	0xbea05d5a	-0.31321222
250	0x3ebe3c18	0.37155223
251	0xbe90abba	-0.28256017
252	0x3e323c42	0.17405799
253	0xbfc815d0	-1.5631657
254	0xbe81027a	-0.25197202
255	0xbf2080da	-0.6269661

lstm.weight_ih_l0 f4 [256, 32]
0	0x3db3d618	0.087810695
1	0x3cb48b67	0.022039128
2	0xbe99642a	-0.29959232
3	0xbe129d6e	-0.14317867
4	0x3d3e1f23	0.046416413
5	0xbcc1711b	-0.023613503
6	0x3eba2954	0.36359656
7	0xbc3f12f8	-0.011662237
8	0xbedddddb	-0.43333325
9	0xbc8330c1	-0.016014459
10	0xbe7408d6	-0.23831496
11	0x3d14182a	0.036155857
12	0x3e01cc18	0.12675512
13	0xbeb4ab75	-0.3528706
14	0xbe3ce77f	-0.18447684
15	0xbdaab105	-0.08334545
16	0xbd0d560a	-0.03450588
17	0xbe37936d	-0.17927332
18	0x3e100a2e	0.14066383
19	0x3c777946	0.015104597
20	0xbe3e6e70	-0.18596816
21	0x3d453074	0.04814191
22	0xbd765e5b	-0.060148578
23	0x3e0d625d	0.13807054
24	0xbdbb501f	-0.09146141
25	0xbcef8ec3	-0.029242879
26	0x3e8f6a5e	0.2801084
27	0x3d94ad83	0.07259657
28	0xbd96aeff	-0.073575966
29	0xbd9317dd	-0.07182286
30	0x3ea62c3c	0.32455623
31	0x3e7d2063	0.24719386
32	0x3e15485c	0.14578384
33	0xbe11fbc4	-0.14256197
34	0x3dde2598	0.10847014
35	0xbda64517	-0.081186466
36	0xbbfec4b9	-0.007774916
37	0xbd15d5b1	-0.036580745
38	0xbbfdf1ab	-0.0077497563
39	0xbd0f6e13	-0.035017084
40	0xbe211cd1	-0.15733649
41	0x3e06b2d9	0.13154162
42	0xbdc3280c	-0.09529123
43	0x3d9fb360	0.07797885
44	0xbd79e390	-0.061008036
45	0xbe3d14e9	-0.18465008
46	0x3d2c0998	0.042001337
47	0x3e484e83	0.195612
48	0xbc3c0a6f	-0.011477097
49	0xbc09c713	-0.008409279
50	0xbdece84a	-0.11567743
51	0xbe854b67	-0.2603409
52	0x3c6e04be	0.014527498
53	0xbdf60659	-0.120129295
54	0xbd76d2c7	-0.060259607
55	0xbe2a0634	-0.16603929
56	0xbe846f6d	-0.2586626
57	0x3d19da50	0.037561715
58	0xbd8a49ed	-0.067523815
59	0xbe00e47a	-0.12587157
60	0xbd88e275	-0.06683818
61	0x3db48028	0.08813506
62	0xbcfddf74	-0.03099034
63	0x3d4eef07	0.050520923
64	0x3d4591d8	0.04823479
65	0xbe56e90a	-0.20987335
66	0xbc12f26c	-0.008968931
67	0xbe15226f	-0.14563917
68	0x3e560058	0.20898569
69	0xbe30fa72	-0.17283037
70	0xbda9e575	-0.082957186
71	0xba5d2c08	-0.0008437042
72	0x3dfcf46a	0.12351306
73	0xbcb6075f	-0.022220312
74	0xbe64638c	-0.22303599
75	0x3db1e25f	0.08685755
76	0xbe493c57	-0.19651924
77	0xbbd6ef0f	-0.0065592597
78	0x3ec5c54e	0.38627094
79	0xbd671cbf	-0.0564239
80	0xbda97f1a	-0.08276196
81	0x3d470eab	0.048597973
82	0xbcd46595	-0.025927344
83	0x3b9e8d20	0.0048386008
84	0x3e29c1b9	0.16577806
85	0xbbeae9d1	-0.0071689864
86	0x3ced4c07	0.028966917
87	0x3df1c23b	0.11804625
88	0xbc95ede1	-0.018301906
89	0x3e0c8540	0.13722706
90	0x3e7270c4	0.23675829
91	0x3e845f86	0.2585413
92	0xbe8b77e8	-0.2723992
93	0x3dcdeaca	0.10054548
94	0xbdab5647	-0.083660655
95	0x3e5b9c47	0.21446334
96	0xbd11898e	-0.035531573
97	0x3bfb1b3f	0.00766316
98	0x3e7a910b	0.24469392
99	0xbe5b19f0	-0.21396613
100	0x3e1c1500	0.15242386
101	0xbd60d8ad	-0.054894138
102	0xbe3e0310	-0.18555856
103	0xbbf17011	-0.0073680957
104	0xbe34d37d	-0.17658801
105	0x3d5c257f	0.053746697
106	0x3d844656	0.06458728
107	0x3de98108	0.11401564
108	0x3d0d8e2e	0.03455942
109	0xbe9f9cf2	-0.31174427
110	0x3d08dde2	0.03341473
111	0xbdae45d3	-0.08509412
112	0xbe045a62	-0.12925103
113	0xbd0034ad	-0.031300236
114	0x3e045f90	0.12927079
115	0x3c724ad5	0.014788349
116	0xbdd74a88	-0.105122626
117	0x3d1247f9	0.03571317
118	0xbdfad53f	-0.12247705
119	0x3d9ccbe1	0.07656074
120	0x3e5cbb36	0.2155579
121	0xbeaccc0c	-0.33749425
122	0xbd524618	-0.051336378
123	0xbdc3b79a	-0.095565036
124	0x3d4934dd	0.04912268
125	0xbe5b4771	-0.21413971
126	0xbe1a9844	-0.15097147
127	0x3e29900e	0.16558859
128	0xbd8b3b73	-0.067984484
129	0xbe5e5526	-0.21712169
130	0xbdaf66aa	-0.085645035
131	0x3e1fb661	0.15596916
132	0x3ddcee30	0.10787618
133	0x3dc829e3	0.09773614
134	0x3d9d3c14	0.076774746
135	0xbce7cb34	-0.028295137
136	0xbe2061ca	-0.15662304
137	0x3e08c42c	0.13356084
138	0xbc89e0ad	-0.016830767
139	0x3d82cbb0	0.063865066
140	0x3d59115e	0.05299508
141	0xbe2f4d50	-0.17119336
142	0x3d9d8867	0.07692032
143	0x3e0e77c5	0.13912876
144	0x3e4e6ddb	0.20159094
145	0xbd816c7b	-0.06319519
146	0x3e13aeef	0.144222
147	0xbd15282f	-0.036415275
148	0x3dfd5ff2	0.12371816
149	0xbe105996	-0.14096674
150	0x3e1bcbd2	0.1521447
151	0xbe869148	-0.26282716
152	0x3d0c6afe	0.034281723
153	0x3dedcb51	0.11611045
154	0x3d2d10fd	0.04225253
155	0x3ddeb25c	0.10873863
156	0xbe2df6c5	-0.16988666
157	0xbb21ffb1	-0.0024719054
158	0xbc3e5729	-0.01161746
159	0x3cb3fb1d	0.021970326
160	0xbd957a27	-0.07298689
161	0xbe5af7fd	-0.21383663
162	0xbdd8e886	-0.10591225
163	0x3c5a6545	0.013329809
164	0x3e4fb0d6	0.20282301
165	0x3e35bf80	0.17748833
166	0x3d615e6e	0.055021696
167	0xbdd95db1	-0.10613573
168	0x3bfd781a	0.0077352645
169	0x3d82fab5	0.06395475
170	0x3e6fdf28	0.23424971
171	0x3e4aa9b9	0.19791307
172	0x3bcea7e7	0.0063066366
173	0xbe12ea2a	-0.14347139
174	0xbe708df1	-0.23491646
175	0x3e1dbdf1	0.15404488
176	0xbdd9b1fa	-0.106296495
177	0xbdf4c976	-0.11952488
178	0x3dae9180	0.08523846
179	0x3dd2e72a	0.10297997
180	0x3df89045	0.12136892
181	0xbc8c4ac5	-0.017125497
182	0x3d9f04f6	0.07764618
183	0xbccd59e3	-0.025067275
184	0xbddef7a4	-0.108870775
185	0x3d4342ee	0.04767125
186	0xbe65e5d3	-0.22450952
187	0xbe4bd5c1	-0.1990576
188	0x3d1ef6fa	0.038809754
189	0x3e240dd1	0.16020896
190	0xbda485e2	-0.080333486
191	0xbd17cd43	-0.037060987
192	0x3d0a3ac0	0.033747435
193	0xbd299b4a	-0.04140786
194	0xbc8f0b82	-0.017461542
195	0x3df5fad8	0.12010735
196	0x3d2355a7	0.039876606
197	0x3d8e0909	0.06935317
198	0xbdb39da2	-0.087703004
199	0xbe165ad9	-0.14683093
200	0xbc762700	-0.015023947
201	0xbdaeba11	-0.08531583
202	0xba468f4d	-0.0007574454
203	0x3e32a55f	0.17445897
204	0x3d6369a7	0.05552068
205	0x3e2303ef	0.1591947
206	0xbc31c56c	-0.010850292
207	0x3e82902a	0.25500613
208	0xbe206e3d	-0.15667053
209	0xbe33dd19	-0.17564811
210	0x3ce35862	0.027752105
211	0x3d8324f0	0.0640353
212	0x3e9fb9e4	0.3119651
213	0x3dc30dd4	0.09524122
214	0x3d9387ff	0.072036736
215	0xbe6dc2e3	-0.23218875
216	0xbe38605a	-0.18005505
217	0xbdeaee9a	-0.11471291
218	0xba7a82b1	-0.00095562177
219	0xbe00690d	-0.12540074
220	0x3d959392	0.073035374
221	0x3de06261	0.10956264
222	0xbdc48bcb	-0.09596976
223	0xbe002287	-0.12513171
224	0xbd0eb7ca	-0.034843244
225	0xbe168752	-0.14700058
226	0xbe465783	-0.1936932
227	0x3e1f213a	0.15540019
228	0xbe0ab32a	-0.13544908
229	0xbd1a0404	-0.037601486
230	0x3ea88931	0.3291717
231	0xbdc982b8	-0.09839386
232	0xbdd5de30	-0.104427695
233	0xbdbb1374	-0.0913457
234	0xbe072609	-0.13198103
235	0x3d5160fd	0.051117886
236	0x3d80fb0e	0.06297885
237	0xbe08c8e2	-0.1335788
238	0xbe04ca91	-0.12967898
239	0x3e81760a	0.2528537
240	0x3e30ef6a	0.17278829
241	0x3c464df1	0.012103544
242	0x3c4553da	0.012043918
243	0xbc0ab6e1	-0.008466453
244	0x3d197f31	0.037474815
245	0xbe84e1bc	-0.25953472
246	0x3d9e0038	0.077148855
247	0xbe45750f	-0.19282936
248	0xbd5dfd1e	-0.05419647
249	0xbac20f2b	-0.0014805546
250	0xbe4ad821	-0.19809009
251	0x3c0dca4c	0.008654188
252	0x3d9be440	0.076118946
253	0x3e1a15d9	0.15047397
254	0x3d8236ea	0.0635813
255	0x3b82202e	0.0039711213

lstm.weight_hh_l0 f4 [256, 64]
0	0xbe843a1c	-0.25825584
1	0x3aee2cc0	0.0018171296
2	0x3e1377f4	0.14401227
3	0x3e11e7c5	0.1424857
4	0x3e81fedb	0.25389752
5	0xbe3ac731	-0.18240048
6	0xbea09165	-0.31360927
7	0x3e2eb0e7	0.1705967
8	0xbd8f8ddb	-0.07009479
9	0xbe62db2a	-0.22153917
10	0xbd38d4cb	-0.04512481
11	0x3db53bdc	0.08849308
12	0xbd44a4e0	-0.0480088
13	0xbe64d29f	-0.2234597
14	0xbdb0beff	-0.086301796
15	0xbcb3c4b1	-0.021944376
16	0x3e4e3ada	0.20139638
17	0xbd8e0e02	-0.069362655
18	0x3d1db94f	0.038506802
19	0xbee4ce3b	-0.4468859
20	0xbe7009e1	-0.23441269
21	0xbe58ac9f	-0.211596
22	0xbd9c36af	-0.076276176
23	0xbe873006	-0.26403826
24	0x3ee8cf24	0.45470536
25	0xbe467ccd	-0.19383545
26	0x3e1f9b04	0.15586478
27	0x3e2d777f	0.16940115
28	0xbd7b5c31	-0.061367217
29	0xbe1777d5	-0.14791806
30	0xbe6f6a11	-0.23380305
31	0x3e1ad5ac	0.15120572
32	0xb9ba75f9	-0.0003556458
33	0xbe1ad54d	-0.1512043
34	0x3eba6f9e	0.36413282
35	0x3e4f3be9	0.20237698
36	0xbd713dde	-0.05889689
37	0x3dae7396	0.0851814
38	0x3ed72527	0.42020532
39	0xbe2fc905	-0.17166527
40	0xbe4c3101	-0.19940569
41	0x3d89ee59	0.06734914
42	0x3d5dc00f	0.05413824
43	0x3e45007f	0.1923847
44	0x3e0588fb	0.13040535
45	0x3de1d1b1	0.110263236
46	0xbeb1a7b7	-0.3469827
47	0xbdd7d547	-0.10538726
48	0x3e675680	0.22591591
49	0x3e78c049	0.24292101
50	0x3e4563fd	0.19276424
51	0x3ea57bd0	0.32321024
52	0x3dea5a4b	0.11443003
53	0x3e8982c3	0.26857576
54	0x3e15a07c	0.14612001
55	0x3e763c88	0.24046528
56	0x3eac560e	0.33659405
57	0x3e14040f	0.14454673
58	0x3dd87da0	0.10570836
59	0xbe209021	-0.15679981
60	0xbe9da381	-0.30788806
61	0x3e895054	0.26819098
62	0xbde13322	-0.10996081
63	0x3c2b31aa	0.010448853
64	0xbe672bec	-0.22575349
65	0x3d8a071a	0.06739636
66	0xbcfd8394	-0.03094653
67	0xbe2f174c	-0.17098731
68	0x3e728c81	0.2368641
69	0x3df26ae1	0.11836792
70	0x3e8ff3ca	0.28115684
71	0xbc8e03b2	-0.017335746
72	0x3e62afad	0.22137327
73	0x3c828e8b	0.01593711
74	0xbe01fea0	-0.12694788
75	0xbefe2e94	-0.4964491
76	0x3cc1ba84	0.023648508
77	0xbe7b7778	-0.24557292
78	0xbd323e56	-0.04351648
79	0xbd1b8610	-0.03796965
80	0xbde9b1d6	-0.11410873
81	0x3e742124	0.23840767
82	0xbf06f95c	-0.5272424
83	0xbdbc236d	-0.091864444
84	0xbee0d7f8	-0.4391477
85	0xbf0986f9	-0.53721577
86	0x3e2049e6	0.1565319
87	0x3bc09b41	0.0058778827
88	0x3ec412b8	0.3829553
89	0x3e699da1	0.22814037
90	0xbc05c147	-0.008163757
91	0xbe045f62	-0.1292701
92	0x3b202570	0.0024436377
93	0x3dc045db	0.09388324
94	0xbcdbfd5f	-0.026854215
95	0x3d32e8ae	0.043678932
96	0x3eda857a	0.4267996
97	0xbea7cfa4	-0.32775605
98	0xbd570765	-0.052497286
99	0xbf085806	-0.53259313
100	0xbb9f5a87	-0.0048630866
101	0x3e8669da	0.26252633
102	0xbe4eca93	-0.20194463
103	0x3c2a7915	0.010404845
104	0xbdc9aa5b	-0.09846946
105	0xbda3d298	-0.07999152
106	0xbde313db	-0.110877715
107	0x3dc47ba2	0.095938936
108	0x3e2b4b6c	0.1672799
109	0xbdaeff0d	-0.08544741
110	0x3f168dae	0.58809936
111	0x3a61549b	0.0008595676
112	0xbdccf4fe	-0.10007666
113	0xbdf44f19	-0.11929149
114	0xbe10f7a3	-0.14156966
115	0x3e949d45	0.29026237
116	0xbe1d26ca	-0.15346828
117	0x3e6e0289	0.23243155
118	0x3e6e2f56	0.23260245
119	0xbe7510d5	-0.23932202
120	0xbcee785a	-0.029110122
121	0x3ecc21cd	0.39869538
122	0xbe16976b	-0.14706199
123	0x3e9241b4	0.28565753
124	0xbd562271	-0.05227894
125	0x3edca051	0.43091062
126	0x3e88633f	0.2663822
127	0x3ea34f43	0.3189641
128	0xbd3e35e8	-0.046438128
129	0x3daa89a1	0.08327032
130	0x3e88ca2d	0.26716748
131	0x3e8560dd	0.26050463
132	0xbd6c0d79	-0.057630036
133	0xbea10801	-0.3145142
134	0x3e85dc66	0.26144713
135	0x3ea36702	0.31914526
136	0xbdfd201e	-0.123596415
137	0x3d9531d7	0.07284897
138	0xbdb0e32b	-0.08637079
139	0x3bb1d8b5	0.005427445
140	0x3daf9bef	0.08574664
141	0x3dd4708e	0.103730306
142	0x3ef13bcc	0.47115934
143	0x3dce0a1c	0.10060522
144	0xbed07f09	-0.4072192
145	0xbe02aa55	-0.12760289
146	0xbe874ad2	-0.2642427
147	0x3ca911e3	0.020638412
148	0xbb289caa	-0.0025728145
149	0xbe38d003	-0.180481
150	0xbe0dce76	-0.1384829
151	0xbdc88acd	-0.09792099
152	0x3ebbd877	0.36688587
153	0x3eca9e1e	0.3957376
154	0x3e5799f5	0.21054824
155	0x3ed27c57	0.4111049
156	0x3e05931e	0.13044402
157	0x3cc6f7bb	0.024288049
158	0x3e1a1ea6	0.15050754
159	0x3e1a51e5	0.15070303
160	0xbec4e10b	-0.38452944
161	0x3d36b3f7	0.04460522
162	0xbe50b421	-0.20381214
163	0xbf3b4fed	-0.7316883
164	0xbc136178	-0.008995406
165	0x3e057f63	0.13036875
166	0xbecaddb0	-0.3962226
167	0xbcf73f18	-0.030181453
168	0xbe243fb4	-0.16039926
169	0xbea85470	-0.3287692
170	0x3d2e94df	0.042622443
171	0xbc9db94e	-0.0192534
172	0xbef7827d	-0.48341742
173	0x3dd44938	0.10365528
174	0x3e4e45fa	0.20143881
175	0xbc806b37	-0.015676124
176	0xbe5201fa	-0.20508566
177	0x3b7174f3	0.0036843389
178	0xbed1f65a	-0.41008264
179	0xbee547f5	-0.4478146
180	0xbf2409bb	-0.6407735
181	0xbe7e79f6	-0.24851212
182	0x3ea1a51c	0.3157128
183	0x3e8af119	0.27137068
184	0xbd397941	-0.045281652
185	0xbe55a50f	-0.20863746
186	0x3d416ee2	0.047224887
187	0xbe24323e	-0.16034791
188	0xbd42c1b5	-0.047548015
189	0x3e9fc0ba	0.31201726
190	0x3ec53f14	0.38524687
191	0xbe08a0ae	-0.13342544
192	0xbd0f6903	-0.035012256
193	0xbe96c829	-0.29449585
194	0x3ecf8ccd	0.4053711
195	0xbe7b9104	-0.24567038
196	0xbe2c60e9	-0.16833843
197	0xbe844ed6	-0.25841397
198	0x3bc92d4b	0.0061394325
199	0xbd8413a6	-0.0644906
200	0xbeff38d6	-0.4984805
201	0xbe39ca78	-0.18143642
202	0xbeb44856	-0.35211438
203	0xbe0844cd	-0.13307495
204	0xbdb8b593	-0.090190075
205	0x3dfb9fa1	0.12286306
206	0xbdc9f71f	-0.09861588
207	0x3f0bb521	0.54573256
208	0xbebf9755	-0.37420145
209	0x3d4f4ff4	0.05061336
210	0xbaa4f9c8	-0.0012586648
211	0xbdcfb5f8	-0.1014213
212	0xbf02e150	-0.5112505
213	0x3e86896b	0.26276717
214	0xbb9b22ed	-0.004734388
215	0xbe827b02	-0.25484473
216	0x3d00be0b	0.03143124
217	0xbdcc50fc	-0.09976384
218	0x3eab87b6	0.33501977
219	0xbdfe3875	-0.12413112
220	0x3d9559a0	0.07292485
221	0x3e0c8246	0.1372157
222	0xbd0aa27a	-0.033846356
223	0xbd6fe3c1	-0.058566812
224	0xbea7da32	-0.32783657
225	0x3da71390	0.08158028
226	0x3ebf1706	0.37322253
227	0xbd23cc10	-0.03998953
228	0xbda6ae83	-0.08138754
229	0x3dc94942	0.09828426
230	0xbbdfe460	-0.0068326443
231	0x3d0eb62c	0.0348417
232	0xbd799324	-0.06093134
233	0x3c393933	0.011305141
234	0x3d87cde7	0.0663107
235	0x3d30dfac	0.04318206
236	0xbd71fa5f	-0.059076663
237	0xbec0a63a	-0.3762682
238	0xbe344576	-0.17604622
239	0x3d2cc7b7	0.04218265
240	0x3d70359f	0.058644887
241	0x3e8a477d	0.27007666
242	0xbdd29b05	-0.10283474
243	0x3f0dc297	0.55375046
244	0xbe423f9f	-0.18969582
245	0x3e64bd1e	0.22337767
246	0x3d7c8152	0.061646767
247	0xbe54310f	-0.2072184
248	0x3df9c661	0.12196041
249	0xbd8d5981	-0.06901837
250	0x3eaa3fa1	0.3325167
251	0x3c8b3d28	0.016996935
252	0x3db59017	0.088653736
253	0x3e72370a	0.23653808
254	0x3e477fee	0.19482395
255	0x3e7381b1	0.23779942

lstm.bias_ih_l0 f4 [256]
0	0x3e4f03ca	0.20216289
1	0x3e27a277	0.16370569
2	0x3e841c68	0.25802922
3	0x3e58fa0a	0.21189132
4	0x3dcdf8a8	0.10057193
5	0x3eccc534	0.39994204
6	0x3e855de9	0.2604821
7	0x3e4350de	0.19073817
8	0x3e493455	0.1964887
9	0x3ea089db	0.31355175
10	0x3e31fc5e	0.17381427
11	0x3ee4b876	0.44671983
12	0x3e87c829	0.26519898
13	0x3eae3449	0.34024265
14	0x3e951488	0.29117227
15	0x3e25c534	0.16188508
16	0x3de9ebd7	0.11421936
17	0x3e4eb9b9	0.20188035
18	0x3ed7d62d	0.4215559
19	0x3e46b53c	0.19405073
20	0x3e6f0002	0.23339847
21	0x3e8a42b4	0.27004015
22	0x3dc9fe50	0.098629594
23	0x3e2fa953	0.17154436
24	0x3e2e05bb	0.16994374
25	0x3e0fbc57	0.1403669
26	0x3e99e609	0.30058315
27	0x3df82e3e	0.12118195
28	0x3eb1e14b	0.34742197
29	0x3e0dfcf2	0.13866022
30	0x3e519c84	0.20469862
31	0x3ee0432b	0.43801245
32	0x3e1f70a3	0.15570311
33	0x3e7e7baa	0.24851862
34	0x3eadc3ff	0.33938596
35	0x3e57ad7f	0.21062277
36	0x3e5c07e8	0.21487391
37	0x3ec0e613	0.37675533
38	0x3e565d0f	0.20933937
39	0x3e164bf1	0.14677407
40	0x3e970e2e	0.29503006
41	0x3e625785	0.22103699
42	0x3ea20c07	0.316498
43	0x3e8d9741	0.2765446
44	0x3eb4f80b	0.35345492
45	0x3da763d6	0.08173339
46	0x3e522366	0.20521316
47	0xbbbd24e9	-0.0057722223
48	0x3e7a6b61	0.24455024
49	0x3eaafc68	0.33395696
50	0x3db6117d	0.088900544
51	0x3e28fcab	0.16502635
52	0x3e91cb58	0.2847545
53	0x3e66cb08	0.22538388
54	0x3e7c2811	0.24624659
55	0x3dcae7c6	0.099074885
56	0x3e918ec9	0.2842925
57	0x3e11fd49	0.14256777
58	0x3e650494	0.22365028
59	0x3e26a4f5	0.16273864
60	0x3e74575a	0.23861447
61	0x3e7adde3	0.24498706
62	0x3eac87ff	0.33697507
63	0x3eaac9cc	0.33357084
64	0xbd585ec3	-0.052824747
65	0x3d5a7555	0.053334553
66	0x3e42c4df	0.19020413
67	0x3ddd27f1	0.10798634
68	0xbcd8c35d	-0.026460344
69	0xbd0909c7	-0.03345659
70	0x3dc00b63	0.09377172
71	0x3d53226b	0.051546495
72	0xbd14cffe	-0.03633117
73	0x3db8de4f	0.09026777
74	0x3d6360ad	0.05551212
75	0x3e21340c	0.1574251
76	0x3e1cc472	0.15309313
77	0xbdd0abd3	-0.10189023
78	0x3e63efce	0.22259447
79	0x3c9cf29e	0.019158658
80	0xbaa0b6dc	-0.0012261528
81	0x3d800718	0.06251353
82	0x3d56e1ac	0.05246131
83	0x3dcb57b8	0.099288404
84	0x3d6aba45	0.057306547
85	0x3dfb4de4	0.12270716
86	0x3c8e1e47	0.017348422
87	0xbceebf40	-0.02914393
88	0x3e32fcdf	0.17479275
89	0x3e708003	0.23486333
90	0x3da99760	0.082808256
91	0x3e067333	0.13129883
92	0x3df9219b	0.12164613
93	0x3d1dbe7b	0.038511734
94	0x3d93e1a1	0.0722077
95	0x3de43729	0.111433335
96	0x3db24945	0.08705381
97	0x3e00fd14	0.12596542
98	0x3e0cdcb2	0.13756064
99	0x3e17abee	0.1481168
100	0x3c27abb0	0.010233805
101	0x3e76794d	0.2406971
102	0x3e5f1ca4	0.2178827
103	0x3e11aa5c	0.14225143
104	0x3e81b3e7	0.25332567
105	0x3da87da8	0.08227092
106	0xbe7219ef	-0.23642705
107	0x3e24381d	0.1603703
108	0x3dd6ad59	0.10482282
109	0x3c82c2f7	0.015962107
110	0xbe163ceb	-0.14671676
111	0x3da5c3dc	0.08093998
112	0xbda96d97	-0.08272856
113	0xbc74c2b3	-0.014938998
114	0x3c63627d	0.013878462
115	0x3e0e3cc8	0.13890374
116	0x3e311a59	0.17295207
117	0x3db42ed1	0.08797992
118	0x3d756455	0.059910137
119	0x3d2cfd91	0.042234007
120	0xbc8d65bc	-0.017260425
121	0x3d0f642a	0.035007633
122	0x3bafcb70	0.005364828
123	0x3e492a43	0.19645028
124	0xbcc83dad	-0.024443472
125	0x3d2ebc79	0.04266021
126	0x3e447f06	0.1918908
127	0x3e0832d3	0.13300638
128	0x3b998c88	0.004685942
129	0xbd115aa3	-0.03548683
130	0x3de3259e	0.11091159
131	0xbd6da26a	-0.05801622
132	0xbd9aa616	-0.0755121
133	0xbd7c6c6d	-0.06162684
134	0x3d497c46	0.049190782
135	0x3de11a79	0.109913774
136	0xbba703b7	-0.0050968784
137	0xbdeb4a6d	-0.11488805
138	0xbe3ac84e	-0.18240473
139	0xbd32d3f3	-0.04365916
140	0x3d379f78	0.044829816
141	0x3e01d8f9	0.12680425
142	0xbd829729	-0.06376488
143	0xbca00a30	-0.019536108
144	0xbd447450	-0.047962487
145	0x3c0071ca	0.007839629
146	0xbd36d453	-0.044636082
147	0xbdc7af0d	-0.09750185
148	0xbdf47a99	-0.11937446
149	0xbdc0be05	-0.09411243
150	0xbd7258db	-0.05916677
151	0xbd38db43	-0.04513098
152	0xbb58e529	-0.0033095574
153	0x3c3a357c	0.011365291
154	0x3e155919	0.1458477
155	0x3cf561f2	0.02995393
156	0xbbf9764e	-0.00761298
157	0x3d8ae8be	0.06782673
158	0xbd3bb25c	-0.045824394
159	0x3d89b963	0.06724813
160	0xbde84aff	-0.11342429
161	0xbd1e9e2a	-0.038725056
162	0x3db9a3d8	0.09064454
163	0xbd704276	-0.058657132
164	0x3c9f1e03	0.01942349
165	0x3e3f3253	0.18671541
166	0x3dfbd7a2	0.12296988
167	0xbdfff4e2	-0.124978796
168	0xbe2853c3	-0.16438203
169	0xbdb97f2d	-0.0905746
170	0xbc54a8e5	-0.012979721
171	0x3d71a1cc	0.058992192
172	0xbda840e5	-0.08215503
173	0x3deae059	0.11468572
174	0x3ca63001	0.020286562
175	0xbd928ba1	-0.07155538
176	0xbc6d971e	-0.014501361
177	0x3d936a4a	0.071980074
178	0xbc9e6971	-0.019337388
179	0xbd1787b9	-0.03699467
180	0xbdb953a5	-0.09049157
181	0x3da169f1	0.07881535
182	0x3d692ade	0.056925647
183	0x3c94ea19	0.018178033
184	0x3df83ba6	0.12120752
185	0x3d9048ee	0.0704516
186	0x3bc82f00	0.0061091185
187	0x3b8fc03d	0.0043869303
188	0xbdc497c4	-0.095992595
189	0x3d54f5df	0.051992293
190	0x3e05aaa0	0.1305337
191	0x3e1925d2	0.14955834
192	0x3e3baf93	0.18328695
193	0x3e13e2ca	0.14441982
194	0x3e7249a9	0.23660912
195	0x3e71d4c0	0.23616314
196	0x3e08eb40	0.13370991
197	0x3e87567f	0.2643318
198	0x3e352e31	0.17693402
199	0x3e34cf22	0.1765714
200	0x3e813173	0.2523304
201	0x3e703f5b	0.23461668
202	0x3e8d1a8d	0.2755932
203	0x3e88f37c	0.26748264
204	0x3e9d07f3	0.30670127
205	0x3e8bf2aa	0.27333575
206	0x3e8804f1	0.2656627
207	0x3e381981	0.17978479
208	0x3e9410f9	0.289192
209	0x3e7fa323	0.24964575
210	0x3e4c9f72	0.19982699
211	0x3e9403ce	0.28909153
212	0x3ebdf117	0.37098
213	0x3ecd6707	0.40117666
214	0x3e0f9a5b	0.14023726
215	0x3df81599	0.121134944
216	0x3da86ac2	0.082234874
217	0x3df4e12a	0.11957009
218	0x3ea2df36	0.3181092
219	0x3ebc96a9	0.36833695
220	0x3ede5b1e	0.43428892
221	0x3dfe759b	0.12424775
222	0x3e8cfbb2	0.27535778
223	0x3e96cdd5	0.29453912
224	0x3e8e9894	0.27850783
225	0x3e4339e2	0.1906505
226	0x3e171bae	0.14756653
227	0x3eadd7e3	0.3395377
228	0x3e1f80c7	0.15576468
229	0x3e24d687	0.1609746
230	0x3e1d007d	0.15332218
231	0x3dabe8e5	0.083940305
232	0x3e237409	0.15962233
233	0x3e50a421	0.2037511
234	0x3e6cde19	0.23131599
235	0x3d9b432f	0.07581174
236	0x3eefeeb5	0.46861807
237	0x3e40a4c5	0.18812855
238	0x3e9f0575	0.3105885
239	0x3e5664a3	0.20936827
240	0x3e6b2eaf	0.22967027
241	0x3e1707a0	0.14749002
242	0x3e3a978f	0.18221878
243	0x3e7695e2	0.24080613
244	0x3e9ceab3	0.3064781
245	0x3ee80b7c	0.45321262
246	0x3e931522	0.2872706
247	0x3e5af93d	0.2138414
248	0x3e96116b	0.29310164
249	0x3e71af19	0.2360195
250	0x3e868a61	0.2627745
251	0x3e4f6253	0.20252351
252	0x3dbd305e	0.09237741
253	0x3e87012f	0.2636809
254	0x3e562bb0	0.20915103
255	0x3ec5e8b6	0.38654107

lstm.bias_hh_l0 f4 [256]
0	0x3d33f6f6	0.043936692
1	0x3d2c7f85	0.0421138
2	0x3e153cdb	0.14573996
3	0x3e0ccfde	0.1375117
4	0x3dc2a01e	0.09503196
5	0x3ebb5877	0.3659093
6	0x3e9daa5a	0.3079403
7	0x3ddd6d74	0.10811892
8	0x3e23d2c8	0.15998375
9	0x3eb0c5fb	0.34526047
10	0x3e7099ab	0.2349612
11	0x3eb9439f	0.36184403
12	0x3ea9e507	0.33182546
13	0x3e4ce486	0.2000905
14	0x3e857ed0	0.26073313
15	0x3ddf87ae	0.10914551
16	0x3e6bc803	0.23025517
17	0x3e4eec71	0.20207383
18	0x3e87a815	0.26495424
19	0x3e5b6c8c	0.21428126
20	0x3e8a5aec	0.27022493
21	0x3e777671	0.24166276
22	0x3df81059	0.12112493
23	0x3d4d9659	0.05019221
24	0x3e6c534a	0.23078647
25	0x3e57aea6	0.21062717
26	0x3e9d52d3	0.30727252
27	0x3e131204	0.14362341
28	0x3e7fb500	0.2497139
29	0x3e78928a	0.2427465
30	0x3e3bf33d	0.18354507
31	0x3ee4bd6e	0.44675773
32	0x3e576a0b	0.21036546
33	0x3e6c2de8	0.23064387
34	0x3ead2c78	0.3382299
35	0x3e90ea5f	0.2830381
36	0x3e10870d	0.14114018
37	0x3e92a37a	0.28640348
38	0x3eb2924b	0.34877238
39	0x3d6c6a4b	0.057718556
40	0x3e993636	0.29924172
41	0x3de89813	0.11357131
42	0x3ea2a92d	0.31769696
43	0x3e7695d5	0.24080594
44	0x3eb17d9c	0.34666145
45	0x3df6f560	0.1205852
46	0x3e7e05de	0.24806926
47	0x3d824de7	0.06362515
48	0x3e4d39f9	0.20041646
49	0x3e926b8d	0.2859768
50	0x3dc74cac	0.09731421
51	0x3e2fa99c	0.17154545
52	0x3e79b982	0.24387172
53	0x3ea50799	0.3223236
54	0x3e038dc1	0.12847044
55	0x3e15d10c	0.14630526
56	0x3e3c9a72	0.18418291
57	0x3dd666b6	0.10468809
58	0x3e32dab3	0.1746624
59	0x3e9cfa91	0.30659917
60	0x3e0bc3eb	0.13648956
61	0x3e215360	0.15754461
62	0x3eb942e2	0.3618384
63	0x3ecb62c6	0.39723796
64	0x3c04e49c	0.008111145
65	0x3aab0c72	0.0013049974
66	0x3e070b5f	0.13187931
67	0x3de97a10	0.11400235
68	0x3e05427b	0.13013642
69	0x3cf1adcb	0.029501816
70	0x3e2281d8	0.15869844
71	0x3d7e2003	0.062042248
72	0x3d74c548	0.059758455
73	0x3e6638ed	0.22482653
74	0x3dfa0380	0.12207699
75	0x3dac2368	0.08405191
76	0x3e387f2e	0.18017265
77	0xbdb800cd	-0.08984528
78	0x3e65feeb	0.22460525
79	0x3bac0b1c	0.005250348
80	0x3deed561	0.116617925
81	0x3dd81f1c	0.10552809
82	0x3df1f4b4	0.118142515
83	0x3c9c4298	0.019074723
84	0x3dd4073d	0.10352943
85	0x3dbb7da9	0.09154827
86	0x3d71a545	0.058995504
87	0xbb026033	-0.0019893765
88	0x3d69f1af	0.057115253
89	0x3e4859cc	0.19565505
90	0x3da0e1c4	0.078555614
91	0x3dda5fdd	0.10662816
92	0x3e3fffa1	0.18749858
93	0x3dbf84f2	0.09351529
94	0x3e4aca71	0.19803788
95	0x3e31588f	0.17318939
96	0x3deb5074	0.114899546
97	0x3e39986a	0.18124548
98	0x3da8f85c	0.08250496
99	0x3e609653	0.21932344
100	0x3cf762b3	0.03019843
101	0x3e420dd5	0.18950589
102	0x3d62c7c4	0.055366293
103	0xbc76515a	-0.015034044
104	0x3e30c553	0.17262773
105	0x3bf18a57	0.0073712277
106	0xbe5fb0d7	-0.21844803
107	0x3d9faf7e	0.07797144
108	0x3e77aadd	0.24186273
109	0x3dda0b2b	0.10646661
110	0xbdef8661	-0.116955526
111	0x3ccd0b36	0.02502976
112	0xbdcd4520	-0.1002295
113	0x3d021b8f	0.031764563
114	0x3e1b70d3	0.15179758
115	0x3e293372	0.16523531
116	0x3e6395c1	0.22225095
117	0x3de1b8fc	0.11021611
118	0x3d523e03	0.05132867
119	0x3e23280d	0.15933247
120	0x3e070155	0.13184102
121	0xbcc36a25	-0.023854325
122	0xbd46487d	-0.048408974
123	0x3da256a1	0.079266794
124	0x3da48ce6	0.08034687
125	0x3d0a4f45	0.033767004
126	0x3e71092c	0.23538655
127	0x3e3c75d5	0.18404324
128	0xbda1bd48	-0.07897431
129	0xbd505476	-0.0508618
130	0x3dca527c	0.09879014
131	0xbd9569f9	-0.07295603
132	0xbc6a1d66	-0.014289236
133	0xbcc7da7a	-0.02439617
134	0x3d63a0ff	0.05557346
135	0x3d0aa3c5	0.03384759
136	0xbd77dfdf	-0.060516234
137	0xbe212eeb	-0.15740554
138	0xbd7281ff	-0.059206005
139	0x3dd33a2d	0.103138305
140	0xbda43dd8	-0.08019608
141	0x3b67604b	0.0035305198
142	0xbdbcb856	-0.09214847
143	0xbbd52ecb	-0.0065058223
144	0x3cd99e71	0.026564809
145	0x3d8fe6bf	0.07026433
146	0xbc897067	-0.01677723
147	0x3cbd71cc	0.023125552
148	0xbc8221a5	-0.015885184
149	0x3ca720b2	0.020401333
150	0xbc5032fa	-0.012707466
151	0xbdca4163	-0.09875753
152	0x3d40518f	0.04695278
153	0xbd2a43ad	-0.041568447
154	0x3e53c09a	0.2067894
155	0x3c3b1323	0.011418137
156	0x3cb99691	0.022654803
157	0xbd73a4dd	-0.059483398
158	0x3c020706	0.007936245
159	0x3ddbebf2	0.10738362
160	0xbc863a4e	-0.016385224
161	0xbdd1231c	-0.10211775
162	0x3d92c8ec	0.07167229
163	0xbc320897	-0.010866306
164	0xbd3c84f5	-0.046025235
165	0x3dfa4f35	0.12222139
166	0x3da7a32e	0.08185421
167	0x3ba2bbab	0.0049662194
168	0xbe27824a	-0.16358295
169	0xbd88a5f8	-0.06672281
170	0xbda513ea	-0.08060439
171	0xbd9452a8	-0.07242328
172	0xbd1ee2e5	-0.038790602
173	0x3dda0571	0.10645569
174	0xbd9622d7	-0.07330864
175	0xbdbf1fd2	-0.09332241
176	0xbc9e761b	-0.019343426
177	0x3ddc1f8b	0.10748204
178	0xbcd9c309	-0.026582258
179	0x3d48a09f	0.048981305
180	0x3ceb63b0	0.028734058
181	0x3e08ce8e	0.13360044
182	0x3d34d41f	0.044147607
183	0x3da35439	0.079750486
184	0x3dd78ddb	0.10525104
185	0x3da5e17b	0.080996476
186	0xbd5ddf08	-0.054167777
187	0xbdaccdc7	-0.084376864
188	0xbdd22cc9	-0.10262448
189	0x3dd297b6	0.10282843
190	0x3db89ea2	0.09014632
191	0x3ddb29e1	0.10701347
192	0x3e949ea2	0.29027277
193	0x3e656b9f	0.22404335
194	0x3e4a5bd8	0.19761598
195	0x3e39bc8f	0.18138336
196	0x3c1c2315	0.009529849
197	0x3ecaeaed	0.3963236
198	0x3d610c31	0.054943267
199	0x3e590924	0.21194893
200	0x3e7f2071	0.24914719
201	0x3e587203	0.21137242
202	0x3e865778	0.26238608
203	0x3ea228d9	0.3167179
204	0x3e5f96d6	0.21834883
205	0x3e8a31f5	0.2699124
206	0x3e9e660d	0.30937234
207	0x3e94e2e8	0.29079366
208	0x3e370741	0.17873861
209	0x3e438f0d	0.19097538
210	0x3e4f4d95	0.20244439
211	0x3eaebef3	0.34130058
212	0x3e962fc3	0.29333314
213	0x3e8cfa24	0.27534592
214	0x3e868e3a	0.26280385
215	0x3ddcb4bc	0.1077666
216	0x3dac4c8a	0.08413036
217	0x3e8cc313	0.2749258
218	0x3ebbdb09	0.36690548
219	0x3e85d9fb	0.26142868
220	0x3ebe784a	0.37201148
221	0x3de6f825	0.112777986
222	0x3df849f5	0.12123481
223	0x3e96a018	0.29419017
224	0x3ec0a9f3	0.3762966
225	0x3e4e4ca0	0.20146418
226	0x3e5267be	0.20547387
227	0x3e7f95bd	0.24959464
228	0x3e821770	0.25408506
229	0x3e2cfdb9	0.16893663
230	0x3e245541	0.16048147
231	0x3e5c6af7	0.21525179
232	0x3e525143	0.20538811
233	0x3de66233	0.11249199
234	0x3e93c3c8	0.28860307
235	0x3de2a3e5	0.11066417
236	0x3ebd2497	0.36941978
237	0x3e26b50a	0.16279998
238	0x3e89108c	0.26770437
239	0x3e6e641a	0.23280373
240	0x3e4b614d	0.19861336
241	0x3e59b124	0.2125898
242	0x3e36417f	0.17798422
243	0x3e49d76e	0.19711086
244	0x3e85f68f	0.26164672
245	0x3eb065f4	0.34452784
246	0x3e819ced	0.25315037
247	0x3e428f38	0.18999946
248	0x3ea11077	0.31457874
249	0x3e6c7007	0.2308961
250	0x3eb371f1	0.35047868
251	0x3e6e6db3	0.23284034
252	0x3e6701c4	0.22559267
253	0x3e48a2ba	0.19593325
254	0x3e8bc2ba	0.27297002
255	0x3e9ef0fe	0.31043237

fc.weight f4 [18, 64]
0	0xbf044725	-0.5167106
1	0xbe1c4cdd	-0.15263696
2	0x3dc3176d	0.095259525
3	0xbf277212	-0.6540843
4	0x3e585afb	0.21128456
5	0xbea0db27	-0.314172
6	0xbbf61016	-0.007509242
7	0xbd0d0211	-0.0344258
8	0x3c661751	0.014043645
9	0xbd36b116	-0.044602476
10	0xbea4e74f	-0.32207724
11	0xbe00b3f1	-0.12568642
12	0xbea2a894	-0.3176924
13	0x3eb4326d	0.35194722
14	0x3ee7403d	0.45166197
15	0x3da94fde	0.082671866
16	0xbe3110a2	-0.17291501
17	0x3e7c5b6d	0.24644251
18	0xbe5cb107	-0.21551906
19	0xbeee7bd8	-0.4657886
20	0xbe54e481	-0.20790292
21	0xbe4ad3ef	-0.19807409
22	0xbefbc5a0	-0.49174213
23	0x3f032a14	0.5123608
24	0x3e977f78	0.29589438
25	0x3ed6d2ec	0.41957796
26	0xbec1d090	-0.37854433
27	0x3e033530	0.12813258
28	0x3e48c0f0	0.1960485
29	0xbe41c547	-0.18922912
30	0xbef0622f	-0.46949908
31	0x3f28962c	0.65854144
32	0xbd894bc4	-0.06703904
33	0xbdeb4a08	-0.1148873
34	0xbda7a0bf	-0.08184957
35	0xbcbb64ec	-0.022875272
36	0x3f2696f6	0.650741
37	0x3e52e5c3	0.2059546
38	0xbf13ad8c	-0.57686687
39	0x3efff1d7	0.49989197
40	0xbd76cbe3	-0.060253035
41	0xbf10d439	-0.56573826
42	0xbed71270	-0.42006254
43	0xbe92e8a0	-0.28693104
44	0x3e9431b1	0.28944162
45	0xbe9f2195	-0.3108031
46	0x3f219762	0.63121617
47	0xbdd43044	-0.103607684
48	0xbf05415d	-0.5205286
49	0xbf160d54	-0.5861409
50	0x3eaf0c01	0.34188846
51	0x3ed87c88	0.4228251
52	0x3d1df530	0.038563907
53	0x3f2a12b4	0.6643479
54	0xbe86658c	-0.2624935
55	0x3e9b56aa	0.30339557
56	0x3eb56662	0.35429674
57	0x3e9afd89	0.30271557
58	0xbebcc1f5	-0.36866727
59	0xbe51ea84	-0.20499617
60	0xbe3fe566	-0.18739852
61	0x3ee0eab1	0.43929055
62	0x3d73dac2	0.059534796
63	0x3eadc6a8	0.33940625
64	0x3bcb8bf6	0.006211753
65	0xbe8f022e	-0.2793135
66	0xbdae4b08	-0.08510405
67	0xbe846314	-0.2585684
68	0xbef88452	-0.48538452
69	0x3d94b4b0	0.07261026
70	0xbe4d7102	-0.2006264
71	0xbf269b58	-0.65080786
72	0x3f44494e	0.76674354
73	0xbea5a041	-0.32348827
74	0xbe3c15a4	-0.1836763
75	0x3e805192	0.25062233
76	0xbe977739	-0.29583147
77	0xbd940671	-0.07227791
78	0xbe59a5ba	-0.21254626
79	0xbf527cdb	-0.82221764
80	0x3f22f6d1	0.6365786
81	0xbf215447	-0.6301922
82	0x3eb0895a	0.3447979
83	0xbec0adfd	-0.37632743
84	0xbdc0f757	-0.09422176
85	0x3e993279	0.2992132
86	0x3e19856e	0.14992306
87	0xbe275764	-0.1634193
88	0x3ea73fea	0.3266595
89	0xbf0306ec	-0.51182437
90	0x3e23dd2c	0.16002339
91	0xbea5451f	-0.32279298
92	0xbf22bdde	-0.63570964
93	0x3f658add	0.89665014
94	0x3f4791a7	0.7795662
95	0x3e9001cb	0.28126368
96	0x3f1d5c2e	0.6146878
97	0xbd885844	-0.0665746
98	0xbd754bf1	-0.059886876
99	0x3f545913	0.82948416
100	0xbe110d4a	-0.14165226
101	0x3e0b9a64	0.13633114
102	0x3e48dcbf	0.19615458
103	0x3ccb844a	0.024843354
104	0xbea5cf1b	-0.3238457
105	0xbe017d6b	-0.126455
106	0x3e7e5cad	0.2484004
107	0xba30ec13	-0.0006749045
108	0xbe8dcd15	-0.27695528
109	0x3ea95273	0.33070716
110	0xbe3dc4d8	-0.18532121
111	0x3dd5ffc0	0.10449171
112	0x3ed13419	0.4086006
113	0x3e9d2026	0.3068859
114	0x3f014f8a	0.5051199
115	0xbdc2eb66	-0.09517555
116	0xbeedc195	-0.46436754
117	0x3ed97708	0.42473626
118	0x3ea69e60	0.32542706
119	0xbdfea1c6	-0.124331996
120	0x3ed06439	0.40701464
121	0x3e8281b1	0.25489572
122	0xbf4b4f10	-0.79417515
123	0x3ed00ee8	0.40636373
124	0x3d02b7b8	0.03191349
125	0x3e30fbc4	0.17283541
126	0x3e7c9a2f	0.24668191
127	0x3e455af7	0.19272982
128	0x3f67792b	0.9041926
129	0xbf0bc7f3	-0.54601973
130	0x3e75c661	0.24001457
131	0xbb8ac28e	-0.0042346185
132	0xbdfc9b8a	-0.12334354
133	0x3ea4a885	0.3215982
134	0x3eee2b77	0.46517536
135	0xbf40ef55	-0.7536519
136	0x3da08b98	0.078391254
137	0x3c0253df	0.007954567
138	0x3ec0f988	0.37690377
139	0xbe8dfd2a	-0.2773221
140	0x3daf7ac2	0.08568336
141	0x3dce8364	0.100836545
142	0x3e344bda	0.1760706
143	0x3e1f8775	0.15579017
144	0xbf2ec307	-0.6826634
145	0x3db99c10	0.0906297
146	0x3ee5a6e2	0.44853884
147	0xbee8b3d0	-0.45449686
148	0x3eb17f88	0.3466761
149	0x3e5a1765	0.21297987
150	0xbe4f91bd	-0.20270438
151	0xbf2bd172	-0.67116463
152	0x3b299893	0.0025878295
153	0xbf630bb5	-0.8868974
154	0x3ad22db4	0.0016035349
155	0xbe99ec3b	-0.30063042
156	0xbf8740e7	-1.0566682
157	0x3f3c3c6a	0.73529685
158	0x3e94d531	0.29068902
159	0x3e1ec2ca	0.15503994
160	0xbec649f5	-0.387283
161	0x3dd41b18	0.1035673
162	0xbea8e705	-0.32988754
163	0xbee2c005	-0.44287124
164	0xbf52e288	-0.8237691
165	0xbe3327e5	-0.17495687
166	0xbf4e786a	-0.8065249
167	0xbf041718	-0.5159774
168	0xbe30bb3a	-0.17258921
169	0x3eab3d81	0.3344536
170	0xbef383c7	-0.47561476
171	0xbeb3717b	-0.35047516
172	0xbde210c4	-0.11038354
173	0xbe6ecf8f	-0.23321365
174	0x3e985e52	0.2975946
175	0xbef05453	-0.46939334
176	0x3ba41edb	0.005008561
177	0x3e7f5e8f	0.24938415
178	0x3e85a860	0.26105022
179	0x3ea383cf	0.319365
180	0xbe638c13	-0.22221403
181	0xbecc784a	-0.39935523
182	0xbf208d6d	-0.627158
183	0x3d50f442	0.051014192
184	0xbe55d77b	-0.2088298
185	0x3ec078ab	0.37592062
186	0xbd6af68f	-0.057364043
187	0x3f4ca3d7	0.799375
188	0x3d86d264	0.065830976
189	0x3e8e7d6f	0.27830073
190	0x3ecbbf37	0.39794323
191	0xbe30bd10	-0.17259622
192	0x3e237c24	0.15965325
193	0x3dfdb908	0.123888075
194	0x3d04d46f	0.032429155
195	0x3efa7a9c	0.4892167
196	0x3d99b600	0.07505417
197	0xbcbe253c	-0.023211114
198	0xbe1a02f9	-0.15040196
199	0x3e538b53	0.20658617
200	0xbe748475	-0.23878653
201	0xbe8064a5	-0.25076786
202	0xbd4139e2	-0.047174342
203	0xbe61d8ad	-0.22055312
204	0x3c372ac4	0.01117963
205	0xbf3b6701	-0.73204046
206	0xbf364d87	-0.7121205
207	0xbe70e011	-0.23522975
208	0x3f01e951	0.5074664
209	0x3eac5a8f	0.3366284
210	0xbea9616c	-0.3308214
211	0xbe3a6219	-0.18201484
212	0xbd8dc0c7	-0.06921535
213	0xbd9e366b	-0.07725223
214	0x3ef9cd53	0.48789462
215	0xbe6403d0	-0.2226708
216	0x3e8716f5	0.26384702
217	0x3e54e214	0.20789367
218	0x3eac4021	0.33642676
219	0x3e94eaaa	0.29085284
220	0x3e843d2e	0.25827926
221	0x3d69949f	0.0570265
222	0xbe8ea647	-0.27861235
223	0xbed2b7a2	-0.41155726
224	0xbea6644f	-0.32498404
225	0xbe1d2fa3	-0.15350203
226	0x3edb3f2a	0.42821628
227	0xbe32c651	-0.17458464
228	0x3e629383	0.22126584
229	0x3e6a0673	0.22854023
230	0x3e698266	0.2280365
231	0xbee0a2d9	-0.43874243
232	0x3f6fd354	0.93681836
233	0x3d38ed87	0.0451484
234	0x3e569944	0.20956904
235	0x3d343d83	0.044003975
236	0x3ec9b535	0.39396062
237	0x3f1eb580	0.619957
238	0xbedade29	-0.4274762
239	0x3e0ed341	0.13947774
240	0x3ee055f9	0.43815592
241	0x3de9fa02	0.11424638
242	0xbe8a2719	-0.26982954
243	0xbedb9ad3	-0.4289156
244	0xbcb46b4f	-0.022023825
245	0x3de80e3f	0.11330842
246	0x3eba6865	0.36407772
247	0x3dd7915e	0.105257735
248	0xbdc440a5	-0.095826425
249	0xbdfb3636	-0.12266199
250	0x3ed9bc3f	0.42526433
251	0xbe88c9ce	-0.26716465
252	0x3daa33ef	0.08310687
253	0x3e393789	0.18087591
254	0x3e7fedbf	0.24993037
255	0xbd94ac0e	-0.07259379

fc.bias f4 [18]
0	0x3deae4aa	0.114693955
1	0x3dba586b	0.09098896
2	0xbd4aa0dd	-0.049469817
3	0x3b78a0cc	0.003793764
4	0xbc6e0fac	-0.014530104
5	0x3d1065b1	0.03525323
6	0xbdc7316d	-0.09726224
7	0x3e1129b0	0.14176059
8	0x3d8b26a6	0.06794481
9	0x3d0f4032	0.03497333
10	0xbe000ebd	-0.12505622
11	0x3c8c1f3f	0.017104743
12	0xbc346f1c	-0.011012819
13	0x3d203b97	0.03911933
14	0xbd3a59db	-0.04549585
15	0xbe20bd8a	-0.15697303
16	0x3d9d0f51	0.07668937
17	0xbd991f2e	-0.0747665
