checkpoints/model.pt (torch, 423507 bytes, 7 tensors)

emb.weight f4 [58, 64]
0	0x3fe47026	1.7846725
1	0x3ee33843	0.44378862
2	0xbf179e86	-0.5922626
3	0x3fb786c2	1.4338
4	0x3f533da2	0.8251592
5	0x3efd5c79	0.49484614
6	0x3f75dcce	0.96040046
7	0x3f356946	0.7086376
8	0xbcfd9052	-0.030952606
9	0x3f176056	0.5913137
10	0x3ee0271f	0.43779847
11	0x3e9b825a	0.30372888
12	0xbe87cf4e	-0.26525348
13	0xbed749d5	-0.42048517
14	0xbfc4f316	-1.5386684
15	0x3fd85ff6	1.6904285
16	0xbf0c384d	-0.5477341
17	0x3fa2e98c	1.2727523
18	0xbeb514df	-0.35367486
19	0x3ff7df11	1.936495
20	0xbe8ca494	-0.27469313
21	0x3e225f71	0.1585672
22	0xbe368e4e	-0.17827722
23	0x3f62ce5f	0.8859615
24	0xbfa93a46	-1.3220909
25	0x3ec53978	0.38520408
26	0x3f9732fc	1.1812434
27	0x3fc6895a	1.5510666
28	0x3fbb3f91	1.4628774
29	0x3fe6fb30	1.8045406
30	0x3f5717d6	0.84020746
31	0x3f34283f	0.7037391
32	0xbf583db6	-0.84469163
33	0x3f87d7a1	1.061268
34	0xbf8a684e	-1.0813081
35	0x3e550d78	0.20805919
36	0xbf3e40bb	-0.7431752
37	0x400edfb1	2.232403
38	0xbe07f9b7	-0.13278852
39	0xbee0d5e6	-0.43913192
40	0xbf5ddf22	-0.866686
41	0xbfa7fab0	-1.3123379
42	0xbe4058b4	-0.18783838
43	0xbf21f32d	-0.6326168
44	0x3f04115d	0.51588994
45	0xbf82cd46	-1.0218894
46	0x3e43492a	0.19070879
47	0x3fb02a2e	1.3762872
48	0xbe6e618e	-0.23279402
49	0x3e8d4723	0.27593336
50	0xbd6a3f88	-0.057189494
51	0x3de1d84f	0.11027586
52	0x3eaca3e7	0.33718798
53	0x3fd1e7ad	1.6398827
54	0xbdd3629d	-0.10321543
55	0x3e9b7468	0.30362248
56	0xc02375ec	-2.5540724
57	0xbf90480b	-1.1271986
58	0x3dc9184c	0.098190874
59	0x3fa7a83f	1.309822
60	0xbf8dafe5	-1.1069304
61	0x3fcc0277	1.5938252
62	0xbf841ec0	-1.0321884
63	0xbfef4a37	-1.8694524
64	0xbf83c63f	-1.0294875
65	0xbf3b35d6	-0.7312902
66	0x3f31e1f1	0.69485384
67	0xbf48e8f9	-0.7848049
68	0x3f77e456	0.9683279
69	0x3fa46aac	1.2845054
70	0x40142dd9	2.3152983
71	0x3f2bae27	0.6706261
72	0xbfcfc4e8	-1.6231966
73	0xbfac9e1f	-1.3485755
74	0x3d1cf8cf	0.03832322
75	0xbea9ba3b	-0.33149895
76	0x3f25c1a1	0.6474858
77	0x40242fa6	2.5654082
78	0xbf44c926	-0.7686943
79	0x3eddec57	0.43344375
80	0x3e041b7f	0.12901114
81	0xbfd00e2f	-1.6254328
82	0x3fa26683	1.2687534
83	0xc0033d7d	-2.050628
84	0x3f376af2	0.7164756
85	0xbff544af	-1.9161586
86	0xbf7ed163	-0.9953825
87	0x3f62b732	0.88560784
88	0xbfc10968	-1.5080996
89	0xbf94e623	-1.1632732
90	0x400295b5	2.0403874
91	0xbef46576	-0.4773366
92	0x3f204b0e	0.62614524
93	0x3f4442a2	0.76664174
94	0x3f0a87dc	0.54113555
95	0xbf58570e	-0.84507835
96	0x3f86a50a	1.0519116
97	0x3f36da1a	0.71426547
98	0xbf964cb6	-1.174216
99	0xbfed7c87	-1.8553628
100	0x3d8fa8ee	0.07014643
101	0xbfade6ec	-1.3586097
102	0x3fb3d4ec	1.4049354
103	0xbf9b05d1	-1.211115
104	0xbfec3d7e	-1.8456266
105	0xbe3c2aa9	-0.18375649
106	0xbf28348f	-0.657052
107	0x3fc10a37	1.5081242
108	0xc0095789	-2.1459677
109	0x3f3160b1	0.69288164
110	0xbf1788d9	-0.5919319
111	0x3f6e56e1	0.93101317
112	0x3fe67231	1.8003598
113	0x3eb801b6	0.35938805
114	0x3ecb7b3f	0.39742467
115	0x3ed7f619	0.42179945
116	0xbef3a893	-0.4758955
117	0x400169ab	2.0220745
118	0xbfde0b87	-1.7347268
119	0x3f31c50d	0.694413
120	0x3e505eb2	0.20348623
121	0xc016a091	-2.3535502
122	0xbfe91f4d	-1.8212677
123	0xbeb02858	-0.3440578
124	0x3f60c439	0.8779941
125	0x3f3d4a92	0.7394191
126	0xbe4073de	-0.187942
127	0x3f94cf38	1.1625738
128	0x3f339e69	0.7016359
129	0xbf8c8673	-1.0978531
130	0x401a3335	2.4093754
131	0xbbf42b6d	-0.007451466
132	0x3e678d65	0.22612531
133	0x3e909cf5	0.2824475
134	0xbff19498	-1.8873472
135	0x3f99aa21	1.2005044
136	0xbeea13a1	-0.457181
137	0x3ec7eb2a	0.39046603
138	0xbecc9e92	-0.3996473
139	0x4005f350	2.0929756
140	0x3e2f44d9	0.17116107
141	0xbdd17a5a	-0.10228415
142	0xbf09b77f	-0.5379562
143	0xbc9ffa7e	-0.019528624
144	0xbf395863	-0.7240049
145	0x40196dcf	2.3973272
146	0xbe65e353	-0.22449999
147	0x3da01d6a	0.0781811
148	0xbfc8f3a8	-1.5699358
149	0xbd9939fa	-0.07481761
150	0xbe41a783	-0.18911557
151	0x3eb0c49f	0.3452501
152	0x3f85aac7	1.0442742
153	0x3f158be8	0.58416605
154	0xbefec9c0	-0.49763298
155	0xbf197327	-0.59941334
156	0x3f1d867b	0.61533326
157	0x3edfb99f	0.43696305
158	0xbf883c28	-1.0643358
159	0x3e60e018	0.21960485
160	0xc01617a6	-2.3451934
161	0x3df64672	0.12025155
162	0xbf316154	-0.69289136
163	0x3ee3e643	0.44511613
164	0xbf64764a	-0.89242995
165	0x3ef1043f	0.47073552
166	0x3fd2c1f3	1.6465439
167	0xbdc2217d	-0.09479044
168	0xc0309301	-2.7589724
169	0x3b93c5f8	0.0045096837
170	0x3e9c7b96	0.3056304
171	0xbf15ce9f	-0.58518404
172	0xbf9137a6	-1.1345108
173	0xbfe8e4a7	-1.8194779
174	0xbf7ca504	-0.98689294
175	0xbf32d47f	-0.69855493
176	0xbfdfd538	-1.7486944
177	0x3f60b6ad	0.8777874
178	0x3fbc85c6	1.4728324
179	0xbf2ae0ce	-0.66749275
180	0xbc224449	-0.009903976
181	0x3f206220	0.62649727
182	0x3e5a20c3	0.2130156
183	0xbfd73750	-1.6813755
184	0x40100cdb	2.2507846
185	0x3d6d0c46	0.057873033
186	0xbf62d6b3	-0.88608855
187	0xbec995ce	-0.39372104
188	0x3e4b4d7c	0.19853777
189	0x3f947ece	1.1601198
190	0x3fe21ed5	1.7665659
191	0x3f0883bc	0.5332601
192	0x3f547dbd	0.8300436
193	0xbd148665	-0.03626098
194	0xc0060552	-2.0940747
195	0xbf5734ec	-0.8406513
196	0x401c91f9	2.4464095
197	0x3ec6c263	0.3882018
198	0x3fc355e4	1.5260587
199	0xbfebc477	-1.8419331
200	0xbf0ec28d	-0.5576561
201	0xc01e5a84	-2.4742746
202	0x3f5f1ac8	0.8715024
203	0xbf6d38ee	-0.9266499
204	0xbf1ebd02	-0.62007153
205	0x401430cb	2.315478
206	0xbf1d3559	-0.6140953
207	0x3fb2a429	1.3956348
208	0x3f9383ae	1.152456
209	0x3f75bc23	0.959902
210	0x3f564eec	0.83714175
211	0x3f228ceb	0.63496274
212	0xbfdb833b	-1.7149423
213	0xbf937c3a	-1.1522286
214	0x3c7e3810	0.015516296
215	0x4007b550	2.1204414
216	0x3eac40b3	0.33643112
217	0x3f997282	1.198807
218	0xbf108b94	-0.5646298
219	0xbe01c25f	-0.12671803
220	0x3f472fd9	0.77807385
221	0xbf114494	-0.56745267
222	0x3e95e5ef	0.29276988
223	0x3f9a6b11	1.2063924
224	0xbf08b039	-0.53393894
225	0xc01f7ce1	-2.491997
226	0x3ec87ca9	0.39157608
227	0xbfd8bbbb	-1.6932291
228	0x3f9f765e	1.2457998
229	0x3da895f1	0.08231724
230	0x3eedc121	0.46436408
231	0x3e497e76	0.19677147
232	0xbe28f358	-0.16499078
233	0x3cdaca52	0.026707802
234	0xbf3ec3a4	-0.74517274
235	0x4008f9ff	2.1402586
236	0xbf5b1a4b	-0.85586995
237	0xbf82da29	-1.0222827
238	0xbf938aa6	-1.1526687
239	0x3f4e612e	0.80617034
240	0xbf291355	-0.66045123
241	0x3dab1ce5	0.083551206
242	0xbf0acd1b	-0.54219216
243	0x3f9826c0	1.1886826
244	0xbf23dfdc	-0.6401346
245	0xbf87a564	-1.0597348
246	0xbeeab224	-0.45839036
247	0xbe2d5d58	-0.16930139
248	0xbec3268d	-0.3811535
249	0x3fd0adff	1.6303099
250	0x3f01f37b	0.50762147
251	0x3fa47715	1.2848841
252	0x3e356ab6	0.17716488
253	0xbdab306c	-0.08358845
254	0x3f414677	0.75498146
255	0xbf2510d4	-0.644788

lstm.weight_ih_l0 f4 [512, 64]
0	0x3ca4b9f7	0.020108206
1	0x3d92290a	0.07136734
2	0xbe26015c	-0.16211456
3	0x3d408f89	0.047011886
4	0xbda8bca3	-0.082391046
5	0xbe5d3ecb	-0.21605985
6	0xbdd7b923	-0.10533359
7	0x3dbd3f3b	0.09240576
8	0x3d38450a	0.044987716
9	0xbe00ba49	-0.12571062
10	0x3dc6de61	0.09710384
11	0x3df264a4	0.11835602
12	0xbd7abed7	-0.061217155
13	0xbe915fc1	-0.28393367
14	0x3e490b54	0.19633228
15	0xbe4d47dd	-0.20046945
16	0x3e07efe0	0.13275099
17	0x3dc04a8a	0.09389217
18	0xbd0aa505	-0.03384878
19	0x3e63955f	0.2222495
20	0xbdcdcde6	-0.10049038
21	0xbc629fa7	-0.013832009
22	0x3dbdefae	0.09274231
23	0x3e1d6dd6	0.1537393
24	0x3dac23f9	0.08405299
25	0x3d1af088	0.037827045
26	0x3db8365b	0.089947425
27	0xbcbad68e	-0.022807386
28	0x3e0d490b	0.13797395
29	0xbe057a87	-0.13035022
30	0x3ce301a1	0.027710738
31	0xbdaed84b	-0.08537348
32	0xbd7b7f11	-0.061400477
33	0x3e20f2a4	0.1571756
34	0xbcec213e	-0.028824445
35	0xbd20d884	-0.039268985
36	0x3dbe3697	0.09287756
37	0x3dbf7d12	0.09350027
38	0xbd06c48f	-0.032902297
39	0x3dc91898	0.09819144
40	0x3e791708	0.24325192
41	0x3e095cc8	0.134143
42	0xbd1913f6	-0.03737255
43	0x3df32046	0.1187139
44	0x3da5167c	0.08060929
45	0x3e01a72b	0.12661426
46	0x3e6977a7	0.2279955
47	0xbda54034	-0.080688864
48	0xbd9b19f5	-0.0757331
49	0xbd9faa0e	-0.07796107
50	0xbe1a206b	-0.15051429
51	0xbdc2bcce	-0.09508668
52	0x3d18c2fb	0.037295323
53	0x3c8fbe02	0.017546657
54	0x3d8cf2ff	0.06882285
55	0xbec28564	-0.37992394
56	0x3e33c227	0.17554532
57	0x3e4edf11	0.2020228
58	0x3d2ca3d6	0.042148434
59	0xbe045617	-0.12923466
60	0x3dd3e56a	0.10346492
61	0xbdaa44c7	-0.083138995
62	0x3d3088ef	0.04309934
63	0xbcfd1296	-0.030892652
64	0x3db1d262	0.086827055
65	0xbe4dad5d	-0.20085664
66	0x3e68445a	0.22682324
67	0x3dd17c79	0.102288194
68	0x3dc614be	0.09671925
69	0xbdb077cd	-0.086166
70	0xbdd316b0	-0.10307062
71	0x3df71840	0.12065172
72	0x3d9e3901	0.077257164
73	0xbd672820	-0.05643475
74	0x3dd1373b	0.102156125
75	0x3dd6d5e9	0.10490019
76	0xbd9bf1bd	-0.07614467
77	0xbd631fc3	-0.055450212
78	0x3e0c68d3	0.13711862
79	0x3d28f2d2	0.041247196
80	0xbd1e411c	-0.038636312
81	0x3e03ab00	0.128582
82	0x3c8b4be2	0.017003957
83	0xbe293095	-0.16522439
84	0x3e4acefc	0.19805521
85	0xbe0c3250	-0.13691068
86	0x3de3fabd	0.11131809
87	0x3e4bc150	0.19897962
88	0xbd534d3a	-0.05158732
89	0x3eb11e68	0.3459351
90	0x3e126b7c	0.14298815
91	0x3d9ec290	0.077519536
92	0xbdebec24	-0.115196496
93	0xbdf392be	-0.11893223
94	0x3e1d7964	0.15378338
95	0x3db49ffc	0.08819577
96	0xbe4fe835	-0.20303424
97	0xbdcda343	-0.10040905
98	0xbb707c91	-0.003669534
99	0xbd9926a1	-0.07478071
100	0xbd909c90	-0.07061112
101	0xbe01d3e6	-0.12678489
102	0x3da88158	0.08227795
103	0x3e008628	0.12551177
104	0x3dbd9218	0.09256381
105	0x3d836760	0.064162016
106	0xbe9f0041	-0.3105488
107	0x3d28805a	0.04113803
108	0x3d18a6c2	0.037268408
109	0x3e259aad	0.16172285
110	0x3df9e1c4	0.122012645
111	0xbdf73e03	-0.12072375
112	0x3de9b71d	0.11411879
113	0x3cf1b7a9	0.029506521
114	0xbd92a94f	-0.07161199
115	0x3e0ac34b	0.13551061
116	0x3daf2300	0.085515976
117	0xbe25481b	-0.16140787
118	0xbd5a70a2	-0.05333007
119	0xbe7508f4	-0.23929197
120	0x3e2f1bbc	0.17100424
121	0x3d7f5c0b	0.06234364
122	0xbd032ee9	-0.03202716
123	0xbdbd6c52	-0.09249176
124	0x3e7f1958	0.24912012
125	0xbd6cf6d7	-0.057852592
126	0xbc67d6d5	-0.014150341
127	0xbe857b00	-0.26070404
128	0x3e2ea06c	0.17053384
129	0x3dcff40c	0.1015397
130	0x3ddba8d0	0.10725558
131	0xbd80380a	-0.062606886
132	0x3ded4ae0	0.11586547
133	0x3c928f85	0.017890701
134	0x3df456a1	0.11930586
135	0xbdfa506f	-0.12222373
136	0x3dcdca69	0.10048372
137	0xbe0457d3	-0.12924127
138	0xbdeb46ae	-0.114880905
139	0xbe0edfa0	-0.13952494
140	0xbda2724c	-0.07931957
141	0x3c4dedaf	0.012568875
142	0x3e0fb863	0.14035182
143	0xbe315c07	-0.17320262
144	0x3db22baf	0.08699738
145	0x3e091f2b	0.13390796
146	0xbe664060	-0.22485495
147	0xbdd16aba	-0.102254346
148	0x3e6a9808	0.22909558
149	0x3d784fe4	0.060623065
150	0xbd1b1178	-0.037858456
151	0x3eb6f798	0.35735774
152	0xbbb2fe58	-0.005462449
153	0xbe141a62	-0.14463189
154	0x3e5ff29d	0.21869893
155	0x3d99e3d2	0.075141564
156	0xbc84e4b8	-0.016222343
157	0xbbddf95c	-0.0067741107
158	0xbd096651	-0.033544842
159	0xbe52d24c	-0.20588034
160	0xbcdb44ea	-0.02676626
161	0xbe97dc02	-0.2966004
162	0x3d8149b0	0.06312883
163	0xbccb6595	-0.024828712
164	0x3e3166d2	0.17324379
165	0xbe2554bb	-0.16145603
166	0x3e2e5bf8	0.17027271
167	0x3e8120bb	0.25220284
168	0x3d17cf2c	0.03706281
169	0xbd648438	-0.055790156
170	0xbdc39758	-0.09550351
171	0x3e8c215f	0.2736921
172	0xbe03528f	-0.12824462
173	0x3e43c745	0.19118984
174	0xbd1129ab	-0.03544013
175	0xbe186ef1	-0.14886071
176	0xbda1429f	-0.07874035
177	0xbdc5d968	-0.096606076
178	0xbe85b11d	-0.2611169
179	0x3d9cf9f6	0.07664864
180	0x3c99583e	0.018718835
181	0x3e404c53	0.18779115
182	0xbbf20676	-0.007386024
183	0x3cf05e34	0.029341795
184	0xbdc42941	-0.09578181
185	0x3bb441b4	0.0055009965
186	0x3ccd1cf3	0.025038218
187	0x3c10665f	0.00881347
188	0x3e095fb4	0.13415414
189	0x3da54bad	0.08071075
190	0x3d9044c8	0.07044369
191	0x3d8419fa	0.06450267
192	0xbdf091ac	-0.11746535
193	0x3e0cee9b	0.13762896
194	0x3e261c0a	0.16221634
195	0xbb3ea5a2	-0.0029090424
196	0xbea8e65b	-0.32988247
197	0xbdd35061	-0.103180654
198	0xbe246887	-0.16055499
199	0xbe08ac14	-0.13346893
200	0xbb38343e	-0.002810731
201	0x3e3bbbbe	0.18333337
202	0x3cf449e2	0.029820386
203	0x3e37d6d9	0.17953052
204	0xbcc604c6	-0.024172198
205	0xbe07d70e	-0.1326563
206	0x3e270eb3	0.16314201
207	0xbe79c666	-0.24392089
208	0x3dedd1b6	0.11612265
209	0x3d99e6c3	0.075147174
210	0xbedd02b3	-0.43166122
211	0x3c28b288	0.010296471
212	0xbc44de3f	-0.012015878
213	0x3e91787d	0.28412238
214	0xbe098ad2	-0.13431862
215	0xbe211eec	-0.15734452
216	0x3e936031	0.28784326
217	0xbdf3e0d6	-0.119081184
218	0x3c152c83	0.009104851
219	0x3e54632f	0.2074096
220	0xbdcbd460	-0.09952617
221	0x3dfb2da2	0.12264563
222	0xbe64f879	-0.2236041
223	0xbd7aada5	-0.061200757
224	0xbe99ed9f	-0.30064103
225	0xbe24fdc9	-0.16112436
226	0xbe561f3b	-0.20910351
227	0x3d57de45	0.052702207
228	0xbd88410b	-0.06653031
229	0xbdded943	-0.10881283
230	0x3dbafeaf	0.09130608
231	0x3de5e680	0.11225605
232	0x3d904716	0.070448086
233	0x3e4d519f	0.20050667
234	0x3e11b863	0.14230494
235	0x3dc22b95	0.09480969
236	0xbdfcad78	-0.12337774
237	0x3e2e3f45	0.17016323
238	0x3e1f5855	0.1556104
239	0xbd265b39	-0.04061434
240	0xbd53f95c	-0.05175148
241	0x3e591ebf	0.21203135
242	0xbdce5704	-0.10075191
243	0xbdad9aa7	-0.08476763
244	0xbdbc722d	-0.09201465
245	0x3e58f514	0.2118724
246	0x3e85ec20	0.26156712
247	0x3d9798e6	0.0740221
248	0x3e561266	0.20905456
249	0x3dc1af93	0.09457316
250	0xbde65d18	-0.11248225
251	0xbe001beb	-0.1251065
252	0x3dfbc1f6	0.122928545
253	0xbde4ff48	-0.111815035
254	0xbd9d0ee9	-0.076688595
255	0x3e7c9f46	0.24670133

lstm.weight_hh_l0 f4 [512, 128]
0	0xbddd4e55	-0.10805956
1	0xbe99c5b6	-0.30033654
2	0xbe4f6e3f	-0.202569
3	0xbe18be8e	-0.14916441
4	0x3d2fe794	0.04294546
5	0xbd94d311	-0.0726682
6	0xbe830a3b	-0.25593743
7	0xbe2c8ac6	-0.16849813
8	0xbe10fb2e	-0.14158317
9	0xbe817c46	-0.25290126
10	0xbd0a869f	-0.03381979
11	0x3e22f81b	0.15914957
12	0xbd9ca18a	-0.07647999
13	0xbd3500ba	-0.044190146
14	0x3e1a544e	0.15071222
15	0xbea8977d	-0.32928076
16	0x3db43e3e	0.08800934
17	0xbe25df68	-0.16198504
18	0x3cd5fb43	0.026120787
19	0x3e2cff10	0.16894174
20	0x3e514a2b	0.20438449
21	0x3e8d37c4	0.27581608
22	0x3e3e01e8	0.18555415
23	0x3e8ac1cb	0.27100977
24	0x3ea19562	0.31559283
25	0xbd01200f	-0.031524714
26	0xbdb30f78	-0.08743185
27	0xbdb7f4d0	-0.08982241
28	0xbd2e0f4a	-0.04249505
29	0xbf17b5c8	-0.5926175
30	0xbeaa1a8a	-0.33223373
31	0x3caeff4c	0.02136197
32	0x3e5dc3be	0.21656701
33	0x3e461eae	0.19347641
34	0x3ce5ee87	0.02806784
35	0x3dc51a42	0.09624149
36	0x3daec237	0.08533137
37	0x3cfe1c4c	0.031019352
38	0x3bd4074e	0.0064705973
39	0x3d148225	0.036256928
40	0x3e972727	0.29522058
41	0xbe173186	-0.14764985
42	0x3ae09936	0.0017135504
43	0x3e0e08de	0.1387057
44	0xbe855315	-0.2603995
45	0xbd6ef19e	-0.058335893
46	0x3d44fd1d	0.04809295
47	0x3d4034c4	0.04692532
48	0xbe887867	-0.2665436
49	0xbda4dbd0	-0.080497384
50	0xbd45ad89	-0.0482612
51	0xbe96a6e3	-0.294242
52	0x3ca03c05	0.01955987
53	0x3e64dd68	0.22350085
54	0x3d0e543c	0.0347483
55	0xbe86b332	-0.2630859
56	0x3eeea7db	0.4661244
57	0x3ee5d5e3	0.44889745
58	0xbe7090cf	-0.2349274
59	0x3e0e4bb0	0.1389606
60	0xbd2f9734	-0.042868808
61	0xbe74baa0	-0.23899317
62	0xbdb0d3b3	-0.086341284
63	0xbb384fad	-0.0028123662
64	0x3cdc7a07	0.026913656
65	0xbe8127d2	-0.25225693
66	0xbb6a9c9c	-0.0035798913
67	0x3d9d52a8	0.07681781
68	0x3e2704ae	0.16310379
69	0xbe9957b8	-0.29949737
70	0x3e5d129e	0.21589133
71	0xbebc61fe	-0.36793512
72	0xbe8e9115	-0.27845064
73	0x3e485b67	0.19566117
74	0x3dc13607	0.09434133
75	0x3ed3ad5a	0.41343194
76	0x3e93255d	0.28739443
77	0x3e287985	0.16452606
78	0xbd8cbc27	-0.06871825
79	0xbd893fa4	-0.067015916
80	0xbe901fd9	-0.28149298
81	0xbe28663f	-0.16445254
82	0xbe8846d5	-0.2661654
83	0x3df3bfaa	0.119017914
84	0x3e50ae99	0.20379104
85	0xbda17746	-0.07884078
86	0x3e8a27d5	0.26983514
87	0x3e5dcbec	0.21659821
88	0xbdb55d99	-0.08855743
89	0x3d220f53	0.039565396
90	0x3da33bdc	0.07970402
91	0x3e05dd33	0.13072662
92	0x3e03f52d	0.12886496
93	0x3ea3c453	0.3198572
94	0x3d49b192	0.04924161
95	0xbb1ae249	-0.0023633412
96	0xbe9f1980	-0.31074142
97	0x3e161c4a	0.14659229
98	0x3e9f0b67	0.31063387
99	0xbdcc71dc	-0.099826545
100	0x3d051db0	0.032499015
101	0xbe21f78e	-0.15817091
102	0x3b818494	0.003952572
103	0xbf03b391	-0.5144587
104	0xbd8b498a	-0.06801136
105	0xbd5221eb	-0.051301878
106	0xbeb95524	-0.3619777
107	0x3dab2320	0.08356309
108	0xbdc347fe	-0.09535216
109	0xbdadf214	-0.08493438
110	0x3d671a47	0.056421544
111	0xbe282348	-0.16419709
112	0x3e0cb6fc	0.13741678
113	0xbde16061	-0.11004711
114	0xbde70654	-0.11280504
115	0xbe590114	-0.21191818
116	0xbd568f4a	-0.052382745
117	0xbe5cc41c	-0.21559185
118	0xbcfa33e7	-0.030542327
119	0xbef0cef8	-0.47032905
120	0x3eb3e270	0.35133696
121	0xbd9a8b82	-0.0754614
122	0xbd705ae5	-0.058680434
123	0xbe1fe753	-0.15615587
124	0xbde998dc	-0.11406109
125	0x3e610145	0.2197314
126	0xbeb6bd5a	-0.3569134
127	0xbd4f30b6	-0.050583564
128	0x3d27edd3	0.04099829
129	0xbe6d19f0	-0.23154426
130	0xbca0aa27	-0.019612385
131	0x3e112b1d	0.14176603
132	0xbe08a65f	-0.13344716
133	0xbf066a70	-0.5250616
134	0x3ddb427c	0.1070604
135	0xbd5ffa21	-0.0546819
136	0x3e6faf7e	0.23406789
137	0xbe1d2c02	-0.15348819
138	0xbd3ffd05	-0.046872158
139	0xbd8ca3b3	-0.06867161
140	0x3e1c453f	0.1526079
141	0x3c352798	0.011056803
142	0x3e0a5fed	0.13513155
143	0xbdc1235f	-0.094305746
144	0x3cb48873	0.02203772
145	0xbe1adb42	-0.15122703
146	0x3e34e54b	0.17665593
147	0xbe57ff47	-0.21093474
148	0x3d813e97	0.06310766
149	0x3e1557b7	0.14584242
150	0x3cd96dac	0.026541553
151	0xbe9c19ec	-0.30488527
152	0x3e4528c7	0.19253837
153	0x3e491b39	0.19639291
154	0x3e340e0b	0.17583482
155	0xbe1e9dff	-0.15489958
156	0xbe38a382	-0.18031123
157	0xbdac1da7	-0.08404093
158	0x3d974913	0.07386985
159	0xbdb0775c	-0.08616516
160	0xbd98ed0f	-0.0746709
161	0xbdbc38c4	-0.09190515
162	0x3e2927bd	0.16519065
163	0x3e6b2f9a	0.22967377
164	0x3daa7d96	0.08324735
165	0xbdba91ad	-0.09109817
166	0xbdb4a093	-0.088196896
167	0x3c8b956b	0.017039021
168	0x3e664a45	0.22489269
169	0xbc2e3b84	-0.010634307
170	0x3e19c60e	0.15016958
171	0x3d33d2ab	0.04390208
172	0xbf0070c5	-0.5017207
173	0x3dd4ef08	0.10397154
174	0xbe5f1f72	-0.21789339
175	0x3da271c9	0.07931859
176	0x3d9e7300	0.07736778
177	0x3f3b0824	0.73059297
178	0xbdd3bc71	-0.10338677
179	0xbe91f952	-0.2851053
180	0xbdc18453	-0.09449067
181	0xbdf68766	-0.12037544
182	0xbd7da833	-0.061927985
183	0xbecaed59	-0.39634207
184	0xbe501c6c	-0.20323342
185	0x3d03a791	0.032142226
186	0x3e5c542d	0.21516486
187	0x3e76696c	0.24063653
188	0xbce64eea	-0.028113801
189	0x3e1bcfa9	0.15215935
190	0x3ddea3db	0.10871097
191	0xbd6ceeed	-0.057845045
192	0x3dc89f96	0.097960636
193	0xbe81bc38	-0.25338912
194	0x3e8a5c71	0.27023652
195	0xbe971536	-0.2950837
196	0x3c856d38	0.016287431
197	0xbe61672b	-0.22012012
198	0xbd9496f9	-0.07255358
199	0xbd7fab16	-0.06241902
200	0xbcafc9b5	-0.021458486
201	0x3eb91389	0.36147717
202	0x3d349a4a	0.044092454
203	0xbe64747f	-0.22310065
204	0x3d92b079	0.07162566
205	0xbe52d2ff	-0.20588301
206	0x3f3cee53	0.73801154
207	0x3ede4544	0.4341222
208	0x3ebac458	0.36477923
209	0x3d86d770	0.0658406
210	0x3de8365e	0.11338495
211	0x3db6bb80	0.089224815
212	0x3e72837a	0.23682967
213	0xbedcbe80	-0.4311409
214	0x3d876914	0.06611839
215	0x3de3b44d	0.11118374
216	0x3e2964c2	0.16542342
217	0x3e320f90	0.17388749
218	0x3d40e2b1	0.04709119
219	0x3e8cab80	0.27474594
220	0xbe0c0e9d	-0.1367745
221	0x3ea91dd4	0.3303057
222	0xbd3e8f7a	-0.04652355
223	0x3e0de5e8	0.13857234
224	0x3cdf2323	0.027238434
225	0xbd8b89d7	-0.068134
226	0x3d43e4e5	0.047825713
227	0xbe6b5bee	-0.22984287
228	0x3e0012e0	0.125072
229	0xbd80fd84	-0.06298354
230	0x3efdcbf6	0.49569672
231	0xbe32466a	-0.17409673
232	0xbe129cab	-0.14317577
233	0x3e1383c8	0.1440574
234	0x3e08ed69	0.13371815
235	0x3cf333a6	0.029687714
236	0x3d9b9ede	0.07598661
237	0x3e2396de	0.1597552
238	0x3e9def57	0.30846664
239	0xbd87586b	-0.06608661
240	0xbe15099c	-0.14554447
241	0x3e664f62	0.2249122
242	0x3e09bfe4	0.13452107
243	0xbd8809d7	-0.06642502
244	0x3cc3e840	0.023914456
245	0x3e2ad196	0.16681513
246	0xbe44aec1	-0.19207288
247	0x3d8e12d2	0.069371834
248	0x3c96663c	0.018359296
249	0xbdd9bf83	-0.10632231
250	0xbd80f458	-0.06296605
251	0xbdacfce4	-0.084466726
252	0xbeff5f3a	-0.4987734
253	0xbd02137c	-0.031756863
254	0xbe817d34	-0.25290835
255	0x3e057d2d	0.13036032

lstm.bias_ih_l0 f4 [512]
0	0x3d51aeea	0.0511922
1	0x3ea7c5ef	0.327682
2	0x3e3d9f48	0.18517792
3	0x3ed30e98	0.41222072
4	0x3e4da145	0.2008105
5	0x3ece0621	0.4023905
6	0x3e7732a9	0.24140419
7	0x3e8c36e2	0.27385622
8	0x3e81a2ed	0.25319615
9	0x3e09a946	0.13443479
10	0x3cb56001	0.022140505
11	0x3ed614ba	0.41812688
12	0x3e5540da	0.2082552
13	0x3e5dd4c5	0.21663196
14	0x3e239cfb	0.15977852
15	0x3e155187	0.14581881
16	0x3e9efcbb	0.31052193
17	0x3e7a511b	0.24445002
18	0x3eb264f5	0.3484265
19	0x3e3c2472	0.18373278
20	0x3e1b0df9	0.15142049
21	0x3e274f50	0.16338849
22	0x3e8795c7	0.2648146
23	0x3e4b867d	0.19875522
24	0x3ee58300	0.44826508
25	0x3de1b41d	0.11020682
26	0x3e36b961	0.17844154
27	0x3e768c67	0.24076997
28	0xbc7eeac1	-0.015558899
29	0x3d9953dc	0.07486698
30	0x3d8a242b	0.0674518
31	0x3ead496d	0.33845082
32	0x3ec81852	0.39081055
33	0x3e9ecc54	0.31015265
34	0x3d616888	0.05503133
35	0x3e514443	0.20436196
36	0x3e944edc	0.28966415
37	0x3dc84064	0.097779065
38	0x3daac678	0.08338636
39	0x3e9acc97	0.30234215
40	0x3e2de4e3	0.16981845
41	0x3eb5c35e	0.35500616
42	0x3e8d98b1	0.27655557
43	0x3e9db5e2	0.30802828
44	0x3eb9211f	0.36158082
45	0x3e496112	0.19665936
46	0x3ec028c1	0.37531093
47	0x3c8df7b6	0.017330032
48	0x3e0c2d49	0.1368915
49	0x3e7051fe	0.23468778
50	0x3e9f2610	0.31083727
51	0x3e8e1963	0.27753744
52	0x3e8f3902	0.2797318
53	0x3ed140d5	0.40869775
54	0x3e777c76	0.24168572
55	0x3e5a272c	0.21304005
56	0x3eb445e9	0.35209587
57	0x3e8b6b7a	0.27230436
58	0x3e3b76f5	0.18307097
59	0x3e37de80	0.17955971
60	0x3dc1b784	0.09458831
61	0x3e97c1a0	0.29639912
62	0x3e8137d4	0.25237906
63	0x3e38a8ed	0.1803319
64	0x3dbfbcc5	0.09362177
65	0x3e0e413e	0.13892075
66	0x3e3032e9	0.1720692
67	0x3e8ef302	0.27919775
68	0x3eb58c7f	0.35458753
69	0x3e789c34	0.24278337
70	0x3e8b9d1e	0.27268308
71	0x3e410922	0.1885114
72	0x3e9c2155	0.3049418
73	0x3d68e8db	0.056862693
74	0x3e895251	0.26820615
75	0x3df6d28e	0.12051879
76	0x3e867ce7	0.26267168
77	0x3e2dcd28	0.16972792
78	0x3ecc9c4b	0.39962992
79	0x3ec2be9c	0.38036048
80	0x3e4f7e03	0.20262913
81	0x3e94a548	0.2903235
82	0x3e32d78f	0.17465042
83	0x3e96755c	0.29386413
84	0x3e199928	0.1499983
85	0x3edb68ca	0.42853385
86	0xbc971ec1	-0.018447282
87	0x3e499492	0.19685581
88	0x3dbaa81d	0.09114096
89	0x3e6e2445	0.23256023
90	0x3e05b901	0.13058855
91	0x3e87207c	0.2639197
92	0x3e2aba38	0.166726
93	0x3ee27243	0.442278
94	0x3e81707b	0.25281128
95	0x3f15c376	0.58501375
96	0x3ea0baa0	0.31392384
97	0x3e2afd64	0.16698223
98	0x3d5a3549	0.053273473
99	0x3e0a24ba	0.13490573
100	0x3e414295	0.18873055
101	0x3e3611c2	0.17780212
102	0x3eae8c13	0.34091243
103	0x3d96972c	0.073530525
104	0x3e01ecd5	0.12688
105	0x3e5626d1	0.20913245
106	0x3eb992b5	0.3624474
107	0x3ddc4caf	0.10756814
108	0x3da3f96b	0.08006557
109	0x3e8e4b21	0.27791694
110	0x3e0d1d73	0.13780765
111	0x3ecfd8ac	0.40594995
112	0x3e06e0e8	0.13171732
113	0x3e4b423b	0.19849484
114	0x3e692f48	0.22771943
115	0x3e5546d6	0.20827803
116	0x3e75f292	0.24018314
117	0x3ea27e55	0.3173701
118	0x3ec5b8de	0.38617605
119	0x3e7d37fd	0.24728389
120	0x3e3d3993	0.18478994
121	0x3dd8e9b4	0.1059145
122	0x3e3a7bac	0.1821124
123	0x3dc9ac05	0.09847263
124	0x3dd734a4	0.10508087
125	0x3ebcea6f	0.3689761
126	0x3e93b7a7	0.28851053
127	0x3e3c963f	0.1841669
128	0x3dd1047b	0.10205933
129	0x3e48ac18	0.19596899
130	0x3de1505d	0.11001656
131	0x3d9c8046	0.07641654
132	0xbd2f6a3e	-0.04282593
133	0x3e79d8cf	0.24399112
134	0x3b961f19	0.004581344
135	0x3e12d4d7	0.14339004
136	0x3d6c4d7b	0.05769108
137	0x3e34cce4	0.17656285
138	0x3caa884e	0.020816948
139	0xbd0aabd0	-0.03385526
140	0x3aae5a27	0.0013302014
141	0x3e213aae	0.15745041
142	0xbd286eb3	-0.041121196
143	0x3dd7fe0b	0.10546502
144	0x3de2e562	0.110789075
145	0xbc2fcd04	-0.010730032
146	0x3d79801b	0.060913187
147	0x3e2c4d99	0.16826476
148	0x3e32f374	0.17475682
149	0x3d210ae4	0.039317027
150	0xbe5c0180	-0.21484947
151	0x3d16da6d	0.0368294
152	0x3cf2b2ac	0.029626213
153	0xbb6ca2af	-0.003610771
154	0x3e673cf4	0.22581846
155	0x3e17b1fb	0.14813988
156	0x3cebb96c	0.02877494
157	0x3ea6df68	0.3259232
158	0x3dc96df5	0.09835426
159	0x3ea3b837	0.31976482
160	0x3e49bad5	0.19700177
161	0x3d0e5837	0.034752097
162	0x3da7a283	0.081852935
163	0xbd0aa43c	-0.033848032
164	0x3e05b940	0.13058949
165	0x3e1ba4a4	0.15199524
166	0x3de638db	0.11241313
167	0x3de816dc	0.11332485
168	0x3da5c47c	0.08094117
169	0xbdefb5ed	-0.117046215
170	0x3e3db393	0.18525533
171	0x3df39bc2	0.11894943
172	0x3d909b0c	0.07060823
173	0x3cb3a944	0.021931298
174	0x3d94d4f5	0.07267181
175	0x3d5db6db	0.054129463
176	0x3bf3e14a	0.007442628
177	0x3e27e9f9	0.16397847
178	0xbd2a6df2	-0.04160876
179	0x3c099b8c	0.008398902
180	0x3e2d72b3	0.16938286
181	0xbccbd826	-0.024883341
182	0x3dff88ca	0.12477262
183	0xbd4edd9b	-0.05050431
184	0x3c6521d4	0.013985116
185	0xbbebdad1	-0.007197716
186	0x38d12157	9.972107e-05
187	0x3d933e3b	0.07189604
188	0x3df8540f	0.12125408
189	0x3ce51d33	0.027968025
190	0x3e1e68e9	0.15469708
191	0x3d6b0afc	0.057383522
192	0xbc112985	-0.008859997
193	0x3db67d7a	0.089106515
194	0x3d9e3f64	0.077269346
195	0x3c2fe162	0.010734888
196	0xbdf7d5ec	-0.12101349
197	0x3d6521a7	0.055940297
198	0x3e346776	0.17617592
199	0x3ba85452	0.005137005
200	0x3e4f4ffc	0.20245355
201	0x3c64aa7d	0.013956663
202	0x3df3f6c6	0.11912303
203	0x3e1758e6	0.14780006
204	0xbcb76cf1	-0.022390814
205	0xbc1cc144	-0.0095675625
206	0x3de70128	0.112795174
207	0x3d979bb3	0.07402744
208	0x3c404de0	0.011737317
209	0xbd72a345	-0.059237737
210	0xbd2debf9	-0.04246137
211	0x3dc93ce5	0.09826068
212	0x3d2f503f	0.042801138
213	0x3e03d8f4	0.1287573
214	0xbcc34820	-0.023838103
215	0x3e198ab2	0.14994314
216	0x3eb80025	0.3593761
217	0x3dfc7e1b	0.1232874
218	0x3d85c53a	0.065317586
219	0x3e1de0dd	0.1541781
220	0x3e1fd6bc	0.15609258
221	0x3e395f44	0.18102747
222	0x3ca13c36	0.019682031
223	0xbc8daa53	-0.017293131
224	0x3dab576e	0.08366285
225	0x3d701586	0.058614276
226	0xbd4b466c	-0.049627706
227	0x3c9f2f39	0.019431697
228	0x3de89374	0.113562495
229	0x3dfc3745	0.12315229
230	0x3ddc8eaf	0.10769402
231	0xbda2da9a	-0.07951851
232	0x3d4a8e00	0.049451828
233	0x3d6791e2	0.05653561
234	0x3d5e89bd	0.054330576
235	0x3bb650db	0.005563838
236	0x3ceb3a0a	0.028714199
237	0x3e1f8224	0.15576988
238	0x3e645e70	0.2230165
239	0x3d11383e	0.035454027
240	0x3e100f22	0.14068273
241	0x3cbcd750	0.023051888
242	0x3d805aa3	0.062672876
243	0x3d8239b1	0.0635866
244	0x3e35dc46	0.17759809
245	0x3d928554	0.071543366
246	0x3d9a4500	0.07532692
247	0xbddd2728	-0.10798484
248	0x3e52f73c	0.20602125
249	0xbbfb0093	-0.0076599806
250	0x3c762d18	0.0150254
251	0x3da7cba0	0.08193135
252	0x3d9fdcda	0.07805796
253	0xbd64c55f	-0.05585229
254	0x3e4822ed	0.19544573
255	0x3d36d7d7	0.044639435

lstm.bias_hh_l0 f4 [512]
0	0x3df5d62c	0.12003741
1	0x3ea7cbcf	0.3277268
2	0x3e43e2f4	0.19129544
3	0x3ecf70ad	0.40515652
4	0x3e7ed21a	0.24884835
5	0x3ebce3c1	0.36892512
6	0x3e616370	0.22010589
7	0x3e81360b	0.25236544
8	0x3e4c9cd8	0.19981706
9	0x3e607bb1	0.21922185
10	0x3dcb61e4	0.099307805
11	0x3efd1a82	0.49434286
12	0x3e248f48	0.16070282
13	0x3e9b0d97	0.30283806
14	0x3e4a2fab	0.19744746
15	0x3e1f8f7a	0.15582076
16	0x3ec305d4	0.38090384
17	0x3e726a1c	0.2367329
18	0x3e5a2c34	0.21305925
19	0x3e00ae46	0.1256648
20	0x3e15ac92	0.14616612
21	0x3e6d1405	0.23152168
22	0x3e83c33c	0.2573489
23	0x3e2c7394	0.16840965
24	0x3eae1b29	0.34005097
25	0x3e439f2a	0.19103685
26	0x3dfaaa05	0.1223946
27	0x3e323899	0.17404403
28	0x3e002b80	0.12516594
29	0x3ddbd4bb	0.107339345
30	0xbc7514a6	-0.014958536
31	0x3e326056	0.17419562
32	0x3ecaf912	0.3964315
33	0x3e83ab59	0.25716665
34	0x3d2c363c	0.04204391
35	0x3e7591f3	0.23981456
36	0x3e875bb5	0.26437154
37	0x3e7787c1	0.2417288
38	0x3dda67f7	0.10664361
39	0x3e958a4b	0.29207072
40	0x3e380a2c	0.1797263
41	0x3ea4bcb4	0.3217522
42	0x3e5f28eb	0.21792953
43	0x3e7a11bc	0.24420828
44	0x3e4a1a86	0.1973668
45	0x3e381dd9	0.17980136
46	0x3e866171	0.26246217
47	0x3cc8d887	0.02451731
48	0x3e11dfc0	0.1424551
49	0x3dcddb33	0.100515746
50	0x3e4f5f96	0.20251307
51	0x3eb758a1	0.35809806
52	0x3e85c16a	0.26124126
53	0x3ee0aabc	0.4388026
54	0x3e644b2e	0.22294304
55	0x3ea058fe	0.31317896
56	0x3e9eb592	0.30997902
57	0x3e7d9b08	0.24766171
58	0x3e16c657	0.14724098
59	0x3e8bcef0	0.27306318
60	0x3e238966	0.15970382
61	0x3eb9c7c9	0.36285236
62	0x3e76657e	0.24062154
63	0x3e8626c7	0.2620146
64	0x3e2f26b3	0.17104606
65	0x3de57158	0.11203259
66	0x3da990df	0.08279585
67	0x3e5df61c	0.21675915
68	0x3e982e52	0.2972284
69	0x3e8a6ed9	0.27037695
70	0x3ead7e81	0.33885577
71	0x3e5355ea	0.20638242
72	0x3e6073e0	0.21919203
73	0xbd1fe945	-0.039040823
74	0x3eaf8b7d	0.3428611
75	0x3d919602	0.0710869
76	0x3e233b37	0.15940557
77	0x3e4609b1	0.19339634
78	0x3eb5cec6	0.35509318
79	0x3ef075f3	0.46964988
80	0x3ea4bdd2	0.3217607
81	0x3e8bf67b	0.27336487
82	0x3e375471	0.17903306
83	0x3e994a85	0.29939666
84	0x3e43cebf	0.19121836
85	0x3ed28358	0.41115832
86	0xbbe3bc0e	-0.006949908
87	0x3e209dd3	0.15685205
88	0x3d49c28a	0.049257793
89	0x3e2cd4f4	0.1687811
90	0x3e55778c	0.20846385
91	0x3eb08d6c	0.34482896
92	0x3e3a37f2	0.18185404
93	0x3e9f2be4	0.31088173
94	0x3e9e098f	0.30866668
95	0x3f0fe597	0.562097
96	0x3e8d7838	0.27630782
97	0x3e468b24	0.19389015
98	0x3de00a79	0.109394975
99	0x3e4a1819	0.19735755
100	0x3e11b72b	0.1423003
101	0x3e5287ca	0.20559612
102	0x3e87d851	0.26532224
103	0x3e2dc5c6	0.16969976
104	0x3e79bfd5	0.24389584
105	0x3e69bc8d	0.22825833
106	0x3ebaf8c1	0.3651791
107	0x3d79a560	0.06094873
108	0x3e12c7f5	0.1433409
109	0x3ebacd62	0.3648482
110	0x3d6c7eba	0.057738043
111	0x3ef2d970	0.47431517
112	0x3e219944	0.15781122
113	0x3e49fc17	0.19725071
114	0x3df4eeae	0.11959587
115	0x3e3155ce	0.17317888
116	0x3e209bdc	0.15684456
117	0x3ea76579	0.32694605
118	0x3eb63551	0.35587552
119	0x3e9fca9d	0.3120927
120	0x3e6a41ea	0.22876707
121	0x3dd19b4e	0.102347
122	0x3e653d34	0.22386628
123	0x3e28ca90	0.16483521
124	0x3da4f300	0.08054161
125	0x3eb46ce0	0.35239315
126	0x3ea533a3	0.32265958
127	0x3e6dd49e	0.23225638
128	0x3d0e19d3	0.034692597
129	0x3dde8a48	0.10866219
130	0x3d26cf0c	0.0407248
131	0x3d86d54c	0.06583652
132	0x3bd4bafe	0.006492018
133	0x3e42b5ff	0.19014739
134	0x3cc34f3c	0.023841493
135	0x3e0a29cf	0.13492511
136	0x3e0825b2	0.1329563
137	0x3d587431	0.052845184
138	0x3e0f6a6a	0.14005437
139	0xbb961242	-0.004579813
140	0xbbd4e4da	-0.006497008
141	0x3dee795c	0.11644241
142	0xbda95fb4	-0.08270207
143	0x3d042637	0.032263007
144	0x3e3873d0	0.18012929
145	0x3d858e40	0.06521273
146	0x3ccfabb0	0.025350422
147	0x3d8033f7	0.062599115
148	0x3e22d036	0.15899739
149	0x3c25f171	0.010128365
150	0xbe3176d2	-0.17330483
151	0xbce1f441	-0.02758229
152	0x3d4bf99f	0.049798604
153	0xbd16deba	-0.036833502
154	0x3e7d5b33	0.24741821
155	0x3de0906e	0.10965048
156	0x3ca304b9	0.019899713
157	0x3e431bea	0.19053617
158	0xbd44bed1	-0.04803354
159	0x3e831511	0.2560201
160	0x3dfa201c	0.122131556
161	0x3dd78714	0.10523811
162	0x3db6ffac	0.08935484
163	0x3df4a1b7	0.11944907
164	0x3d98e7b9	0.074660726
165	0x3e21481f	0.15750168
166	0x3e189c1e	0.14903304
167	0x3e4df0b9	0.2011136
168	0x3d71dfdc	0.05905138
169	0x3c7ca9d7	0.015421352
170	0x3d9ed494	0.0775539
171	0x3d887c4e	0.06664334
172	0x3cb16f72	0.021659587
173	0xbda9727a	-0.08273788
174	0x3d127a03	0.03576089
175	0x3d14bed9	0.03631482
176	0x3d9f9337	0.07791751
177	0x3e439c38	0.19102561
178	0x3db7b798	0.089705646
179	0x3bc63e04	0.0060498733
180	0x3dc58a69	0.0964554
181	0x3c03fce8	0.008055903
182	0x3dd66805	0.10469059
183	0xbdb6491d	-0.08900664
184	0xbe0704cc	-0.13185424
185	0x3bd06ecc	0.0063608643
186	0xbd70e07e	-0.058807842
187	0x3dfd3190	0.12362969
188	0x3a67770c	0.000882969
189	0x3cba2458	0.022722408
190	0x3e282da5	0.16423662
191	0xbd077b06	-0.03307631
192	0x3dfe7bfa	0.124259904
193	0x3dfc1888	0.123093665
194	0x3da3319c	0.079684466
195	0x3d5731c3	0.05253769
196	0x3bab994a	0.0052367793
197	0x3e41a532	0.18910673
198	0x3e380e31	0.17974164
199	0x3d607a34	0.054804042
200	0x3e3fa16a	0.18713918
201	0x3d9a25b4	0.075267226
202	0x3d727ec2	0.059202917
203	0x3da9ffc1	0.08300734
204	0x3d659cc7	0.056057718
205	0xbd15092b	-0.036385696
206	0x3e13d9b4	0.14438516
207	0x3e13de6f	0.1444032
208	0x3b1d0ce7	0.002396399
209	0x3d8100d5	0.06298987
210	0xbca9a83a	-0.0207101
211	0x3e87d0b8	0.26526427
212	0x3be3a36a	0.0069469707
213	0x3dc95ae1	0.09831787
214	0xbc8a0b97	-0.01685123
215	0x3e538e85	0.20659836
216	0x3ebe345b	0.3714932
217	0x3e07bed1	0.13256384
218	0x3d83fb6d	0.0644444
219	0x3d85ce01	0.06533433
220	0x3d49e7ab	0.0492932
221	0x3e615ef8	0.22008884
222	0x3d833b57	0.064078026
223	0x3e132947	0.14371215
224	0x3d0179ec	0.031610414
225	0x3db04a51	0.08607925
226	0x3d99b6c1	0.07505561
227	0xb96277bc	-0.00021597644
228	0x3e2f3dfb	0.17113487
229	0x3de6b3b8	0.112647474
230	0x3db6e1ea	0.089298084
231	0xbdba632a	-0.09100945
232	0x3da03548	0.078226626
233	0x3d9acae0	0.075582266
234	0x3c23ae67	0.009990311
235	0xbbfbc2b4	-0.0076831225
236	0x3e08c4b9	0.13356294
237	0x3d7900da	0.060791828
238	0x3e397425	0.18110712
239	0x3e1e3358	0.15449274
240	0x3e1f21e2	0.15540269
241	0xbd015c20	-0.031581998
242	0x3d4a41a4	0.049379006
243	0x3e2b4b10	0.16727853
244	0x3d0d95cc	0.034566686
245	0x3d896fa1	0.06710745
246	0x3e21cb45	0.15800197
247	0xbbb7e569	-0.0056120646
248	0x3e0cccde	0.13750026
249	0x3c6a4a2d	0.014299911
250	0xbc621465	-0.013798808
251	0x3dbe6219	0.092960544
252	0x3d56c4a5	0.05243363
253	0x3dc61dec	0.09673676
254	0x3dcbb089	0.09945781
255	0x3cb8cd4c	0.02255883

fc.weight f4 [18, 128]
0	0xbe958b2f	-0.2920775
1	0x3eca4d86	0.3951227
2	0x3dd8d580	0.10587597
3	0x3dca3d27	0.09874945
4	0xbf31bfff	-0.6943359
5	0xbdf4c760	-0.1195209
6	0xbe41cc7c	-0.18925661
7	0xbc1e79a0	-0.009672552
8	0x3de51c17	0.11186998
9	0x3e3dc8cf	0.18533634
10	0xbea51923	-0.3224574
11	0xbe87746e	-0.26456016
12	0x3e8af815	0.27142397
13	0x3dadb389	0.08481509
14	0x3e487b93	0.1957839
15	0xbe7aa014	-0.24475127
16	0xbf033c31	-0.5126372
17	0x3e2cbb7f	0.16868399
18	0x3e74e8ba	0.23916903
19	0x3e2c978e	0.16854689
20	0x3e452752	0.19253281
21	0xbe38f7ba	-0.1806325
22	0xbea12512	-0.31473595
23	0xbef55268	-0.47914433
24	0x3f011b9e	0.50432765
25	0x3ec14bcf	0.3775315
26	0xbd880df4	-0.06643286
27	0x3e9860d4	0.29761374
28	0xbf09d055	-0.53833514
29	0xbe801e00	-0.25022888
30	0x3f69cc5d	0.9132746
31	0x3e2bfda5	0.16795976
32	0xbe364544	-0.1779986
33	0x3d1194c9	0.035542283
34	0x3ed4561e	0.41471952
35	0x3b890a27	0.0041821185
36	0xbe0f71f0	-0.14008307
37	0xbdbadebf	-0.09124517
38	0x3ea266aa	0.3171895
39	0x3e47270b	0.19448487
40	0x3ee4b9bc	0.44672954
41	0xbea05d06	-0.3132097
42	0xbd532d79	-0.051557038
43	0xbeaf3d61	-0.34226516
44	0xbeb5a79b	-0.35479435
45	0x3d5076f3	0.05089469
46	0xbcdc0ac6	-0.026860606
47	0xbf34fde3	-0.706999
48	0x3dbfe7f5	0.09370414
49	0xbe1486a8	-0.14504492
50	0xbe6c2b42	-0.23063377
51	0x3f070eec	0.52757144
52	0xbe197451	-0.14985777
53	0xbee21b7e	-0.441616
54	0xbe809f49	-0.25121525
55	0xbee92f89	-0.4554408
56	0xbe9432e2	-0.2894507
57	0x3ee02c1e	0.4378366
58	0x3b5b8819	0.0033497869
59	0x3e9b2041	0.30298045
60	0x3f47f5b6	0.781093
61	0x3bc020c6	0.005863282
62	0xbebcd41e	-0.36880583
63	0xbf04ef47	-0.5192761
64	0x3f0c7340	0.5486336
65	0xbee3c395	-0.44485155
66	0x3e8b63fb	0.27224717
67	0xbe9e95df	-0.30973718
68	0x3ec2b9fa	0.38032514
69	0xbe196fe3	-0.14984088
70	0x3d52bb64	0.05144824
71	0xbed8a06c	-0.42309892
72	0x3e54cd14	0.20781356
73	0xbd2e2956	-0.04251989
74	0x3e2596cb	0.16170804
75	0xbef8a94d	-0.48566666
76	0x3eb422ee	0.351829
77	0xbec35ca1	-0.38156608
78	0xbf577e00	-0.84176636
79	0xbe2ea25a	-0.1705412
80	0xbf4c6ecf	-0.7985658
81	0x3e47b506	0.19502649
82	0x3e447243	0.19184212
83	0x3e4564b9	0.19276704
84	0xbec0deca	-0.37669975
85	0x3e4f0a82	0.20218852
86	0x3e3585ea	0.17726865
87	0x3ecb05ce	0.39652866
88	0x3dc41d41	0.09575892
89	0x3e4ed1df	0.20197247
90	0x3d34d8e1	0.044152144
91	0xbe2e4469	-0.17018284
92	0x3e16dc71	0.14732529
93	0x3f1303f3	0.574279
94	0xbc8151f6	-0.015786152
95	0x3eab35c1	0.33439448
96	0xbe8fee6f	-0.28111598
97	0x3de06ddc	0.10958454
98	0x3ec65e13	0.38743648
99	0x3e95b028	0.2923596
100	0x3e1c6c51	0.15275694
101	0xbde0f881	-0.10984898
102	0x3ec61437	0.38687298
103	0xbeed83ea	-0.46389705
104	0xbcd601e0	-0.026123941
105	0x3d88b4a1	0.06675077
106	0xbeec5624	-0.4615947
107	0x3cb18af6	0.021672707
108	0xbc97427a	-0.018464316
109	0xbe427f8c	-0.18993968
110	0xbe69d257	-0.22834145
111	0xbe217b01	-0.15769579
112	0x3e139f2a	0.14416185
113	0x3ec759bf	0.38935658
114	0x3e361a45	0.17783459
115	0xbd7f97d8	-0.06240067
116	0x3c857ef3	0.016295886
117	0xbecb5d15	-0.39719453
118	0xbdfb8964	-0.122820646
119	0x3c9c165b	0.019053629
120	0xbeb46e4c	-0.352404
121	0xbe6cce88	-0.2312566
122	0x3f0e00ef	0.55470175
123	0xbe0ef501	-0.13960649
124	0xbd3c9eb0	-0.046049774
125	0xbf0d905d	-0.55298406
126	0x3d4f9e32	0.050687976
127	0x3e6cc009	0.2312013
128	0x3e981389	0.29702404
129	0xbe1b260b	-0.15151231
130	0x3ec62fe2	0.38708407
131	0xbd9bff87	-0.07617097
132	0xbe684946	-0.22684202
133	0x3f1e56ad	0.61851007
134	0xbe1d12ac	-0.15339154
135	0xbf2bbc2d	-0.6708401
136	0xbe8e2763	-0.27764425
137	0x3db16fac	0.08663878
138	0xbe53f6b0	-0.20699573
139	0x3ee80d83	0.4532281
140	0x3dbecc37	0.09316295
141	0xbde4c38d	-0.11170111
142	0xbecc1eea	-0.39867336
143	0x3e936b0d	0.2879261
144	0xbef7615b	-0.48316464
145	0x3c54ebd8	0.012995683
146	0xbf265333	-0.649707
147	0xbe9c855e	-0.305705
148	0x3ec11117	0.3770835
149	0x3e0565d4	0.13027126
150	0xbeade6c6	-0.3396513
151	0x3eb30549	0.3496497
152	0x3eadf34b	0.3397468
153	0xbd8555c3	-0.065104984
154	0xbea22791	-0.31670812
155	0xbe043c07	-0.12913524
156	0x3e6da71c	0.23208278
157	0x3e90b242	0.28261
158	0xbe575cf0	-0.21031547
159	0x3f077b85	0.5292285
160	0xbd744119	-0.059632394
161	0x3d60f63e	0.054922335
162	0x3e90f99d	0.2831544
163	0x3e009c3b	0.12559597
164	0xbe7a0936	-0.24417576
165	0x3cf3fa52	0.029782448
166	0x3dacba7c	0.084340066
167	0xbe84bcfa	-0.25925428
168	0xbe02657b	-0.12734024
169	0xbf0802df	-0.5312938
170	0x3f2bb840	0.6707802
171	0xbe527bd7	-0.20555054
172	0xbd95a2e2	-0.07306458
173	0x3e3eb091	0.18622042
174	0xbe29c58c	-0.16579264
175	0xbded92be	-0.116002545
176	0xbe3c8c08	-0.18412793
177	0x3d88049b	0.066415034
178	0x3f1c483e	0.6104773
179	0xbe34d979	-0.17661084
180	0xbe892e69	-0.2679322
181	0x3d0eb20d	0.03483777
182	0x3f06906c	0.5256412
183	0x3dec48c9	0.1153732
184	0xbd091c5a	-0.033474304
185	0xbebff4e3	-0.3749152
186	0x3e03c49a	0.12867966
187	0x3eaff1a1	0.34364036
188	0xbe0ad2bd	-0.13556953
189	0x3df9bca1	0.12194181
190	0x3dd0aead	0.10189567
191	0x3e04aa85	0.12955673
192	0x3e6aec2f	0.2294166
193	0xbe2d1c8f	-0.16905425
194	0x3e2fc5d4	0.17165309
195	0x3f1bfae1	0.60929686
196	0x3d1fc87d	0.03900956
197	0x3a0463b0	0.0005050255
198	0xbe9fcd50	-0.31211329
199	0xbcfa7618	-0.03057389
200	0xbe9fe455	-0.3122889
201	0x3e9418e3	0.28925237
202	0x3f0a1212	0.53933823
203	0x3dea8900	0.11451912
204	0xbe8699c9	-0.26289204
205	0x3e1c3662	0.1525512
206	0xbd7f584e	-0.062340073
207	0xbeac1354	-0.33608496
208	0x3d9e742b	0.07737001
209	0xbf4baa70	-0.7955694
210	0xbf05cc11	-0.52264506
211	0xbe982d7f	-0.2972221
212	0xbe835513	-0.25650844
213	0xbe89f605	-0.2694551
214	0xbe9b997f	-0.30390546
215	0xbeb76fc5	-0.3582746
216	0xbe200509	-0.15626921
217	0xbcd8e4c6	-0.026476275
218	0x3e93dcbf	0.28879353
219	0xbec9eb70	-0.39437437
220	0x3cb797cf	0.022411255
221	0x3e888209	0.2666171
222	0xbce3db1c	-0.02781444
223	0x3f1a6d3b	0.6032292
224	0xbe098a26	-0.13431606
225	0xbe9dbaf3	-0.30806693
226	0x3d36127e	0.04445123
227	0xbe323224	-0.1740194
228	0x3e537e14	0.20653564
229	0xbe0dddf6	-0.13854203
230	0x3cde2bac	0.027120434
231	0x3df95b53	0.12175622
232	0x3eaad21c	0.33363426
233	0xbf0ae5f6	-0.5425714
234	0xbe5e4fcf	-0.21710132
235	0xbe0a4f28	-0.13506758
236	0xbe5bae77	-0.21453272
237	0x3ec4283f	0.38311955
238	0xbe30dfb5	-0.17272837
239	0xbd939363	-0.07205846
240	0x3ab8aae2	0.0014089013
241	0xbe809c83	-0.2511941
242	0xbe3ece7a	-0.18633452
243	0x3ea8f814	0.3300177
244	0x3d148d1e	0.036267392
245	0x3e4b759c	0.19869083
246	0x3f4d560f	0.8020944
247	0x3e55111a	0.20807305
248	0x3e821fa8	0.25414777
249	0xbea16d30	-0.31528616
250	0x3e027cc0	0.12742901
251	0xbe741f0b	-0.23839967
252	0x3ec7ecb2	0.39047772
253	0x3da1b59f	0.078959696
254	0xbf037a02	-0.51358044
255	0xbede2750	-0.43389368

fc.bias f4 [18]
0	0xbd3fb97b	-0.046807747
1	0x3d06a3ee	0.03287118
2	0xbe132971	-0.14371277
3	0xbd96cd42	-0.073633686
4	0xbe04db71	-0.12974335
5	0x3d9f7780	0.07786465
6	0xbcdc7ae3	-0.026914066
7	0x3e55ecfc	0.20891184
8	0x3e4ab649	0.19796099
9	0xbd2e790f	-0.04259592
10	0xbe20f942	-0.15720084
11	0xbe8cc30b	-0.27492556
12	0xbe3b69fb	-0.18302147
13	0xbe90c6b3	-0.28276595
14	0xbe75fa6b	-0.24021308
15	0xbe2aef76	-0.1669291
16	0xbe2b2f96	-0.16717371
17	0xbe013afd	-0.12620158
